ai/models/dqn_enhanced_ep600.pth (torch, 78454 bytes, 6 tensors)

fc1.weight f4 [128, 12]
0	0x3e5fa0c0	0.21838665
1	0xbe862602	-0.26200873
2	0xbe8a0f64	-0.26964867
3	0x3e54fcfe	0.20799634
4	0xbe5c26ab	-0.21499126
5	0xbdb76cec	-0.08956322
6	0xbde71878	-0.11283964
7	0xbdd9a82a	-0.10627778
8	0x3c77a0c0	0.015114009
9	0xbdf423ea	-0.119209126
10	0xbc7935c0	-0.015210569
11	0xbe2499bd	-0.16074272
12	0x3d819c7a	0.06328674
13	0x3c76e623	0.015069517
14	0xbc071344	-0.008244339
15	0x3dc008ea	0.093767
16	0xbe4945f9	-0.19655599
17	0x3d58eec7	0.05296209
18	0xbce858e8	-0.028362706
19	0xbda38d01	-0.07985879
20	0xbe955ba0	-0.29171467
21	0xbe27a8cd	-0.16372986
22	0x3e6b7b0b	0.22996156
23	0xbe84c325	-0.25930133
24	0x3e2bdbc9	0.1678306
25	0xbe6c41b2	-0.23071936
26	0xbf0832e5	-0.5320266
27	0xbee4dd5e	-0.4470014
28	0xbe412a92	-0.18863896
29	0xbe5a7021	-0.21331836
30	0xbefe87e0	-0.4971304
31	0xbb40fd15	-0.0029447724
32	0xbf4bb330	-0.79570293
33	0x3b2fbe3d	0.0026816272
34	0xbe87a58c	-0.2649349
35	0x3e5073aa	0.20356622
36	0x3ea4380c	0.3207401
37	0xbe7aa6e5	-0.24477728
38	0xbe8f0248	-0.27931428
39	0xbecc32d8	-0.3988254
40	0xbe45a2a5	-0.19300325
41	0xbd1808dd	-0.037117828
42	0xbe602af7	-0.2189139
43	0x3d171cf9	0.036892865
44	0xbe2a401c	-0.16626018
45	0x3ded792d	0.11595378
46	0x3da6036b	0.08106121
47	0x3e3e5ae5	0.18589361
48	0xbe3c9f07	-0.18420039
49	0x3da8e606	0.082469985
50	0x3e6271a0	0.22113657
51	0xbea2ec32	-0.31820828
52	0xbe3d2a94	-0.18473274
53	0xbe8f70c4	-0.2801572
54	0xbe1b2dbd	-0.15154167
55	0xbd040510	-0.03223139
56	0xbe92ed69	-0.28696755
57	0x3e652402	0.22377017
58	0xbe6943ec	-0.22779816
59	0x3de4b2e5	0.11166934
60	0xbf1946dc	-0.5987375
61	0x3e1b0294	0.15137702
62	0xbe353a6b	-0.17698066
63	0xbe7d9b2d	-0.24766226
64	0xbf8e7f73	-1.1132644
65	0x3f39689b	0.7242524
66	0xbe81d4d2	-0.25357682
67	0xbc844e85	-0.016150722
68	0xbee616ab	-0.4493917
69	0x3def7fa4	0.116942674
70	0xbe7082d0	-0.23487401
71	0xbe9f4a74	-0.3111149
72	0xbe2c93f3	-0.16853313
73	0x3e407a76	0.18796715
74	0x3d49a719	0.049231622
75	0xbe1d4787	-0.15359317
76	0x3ea516f8	0.32244086
77	0xbeb3ce8b	-0.35118517
78	0xbec1d060	-0.3785429
79	0x3cd70447	0.026247157
80	0xbe8fea66	-0.2810852
81	0x3e86440c	0.2622379
82	0xbe7ecf47	-0.24883758
83	0xbe683f27	-0.2268034
84	0x3e22bb85	0.15891846
85	0x3cab0932	0.020878408
86	0xbc547ea8	-0.01296965
87	0xbd35784c	-0.044304177
88	0xbd23ce0a	-0.039991416
89	0xbda9487c	-0.082657784
90	0xbe5eb129	-0.21747269
91	0x3d9482f3	0.07251539
92	0xbf0a6830	-0.5406523
93	0x3e671a76	0.22568688
94	0xbe55a4bb	-0.20863621
95	0xbd5b924e	-0.053606324
96	0xbe96dfa3	-0.29467496
97	0xbd73e43b	-0.05954383
98	0x3d812e96	0.06307714
99	0xbc345586	-0.0110067185
100	0x3e45c302	0.19312671
101	0xbeac0c50	-0.33603144
102	0xbdcc38c4	-0.09971765
103	0xbb50e012	-0.0031871838
104	0x3e236a30	0.15958476
105	0xbe1f4a08	-0.15555584
106	0xbd1af989	-0.03783563
107	0x3e80afa4	0.25134003
108	0xbf342872	-0.70374215
109	0x3f3ffbf5	0.7499383
110	0xbb3f29d4	-0.0029169219
111	0xbe974ee3	-0.29552373
112	0x3e9c17c5	0.30486885
113	0xbeb669e5	-0.35627666
114	0x3e058a16	0.13040957
115	0xbd0e7206	-0.03477671
116	0xbe452587	-0.19252597
117	0xbe9fb43c	-0.31192195
118	0xbebcf146	-0.36902827
119	0xbe3542ce	-0.17701265
120	0xbd209c63	-0.039211642
121	0x3bf099d4	0.0073425565
122	0x3e741091	0.23834445
123	0xbecfb090	-0.40564394
124	0xbdceca03	-0.100971244
125	0xbe36eecc	-0.17864531
126	0x3cfd5536	0.03092442
127	0xbe0c84b7	-0.13722502
128	0xbcdb1f95	-0.026748458
129	0x3d6ab8e7	0.057305243
130	0x3de817a6	0.113326356
131	0xbd999b0a	-0.075002745
132	0xbebf67f0	-0.37383986
133	0x3d0abffc	0.033874497
134	0x3db40a03	0.08790972
135	0x3d41a209	0.04727367
136	0x3dd52120	0.10406709
137	0xbe10cdeb	-0.14141051
138	0x3e41dabf	0.18931101
139	0xbc0d9b28	-0.008642949
140	0x3e92f485	0.2870218
141	0x3dee82d0	0.11646044
142	0x3ddf1bbb	0.10893961
143	0x3d18b24c	0.037279412
144	0xbec68d56	-0.38779706
145	0xbc83f80a	-0.016109485
146	0xbc09d9f7	-0.008413783
147	0xbe7ca6d2	-0.24673012
148	0x3e8ded51	0.2772012
149	0x3e3a2015	0.18176301
150	0xbd46e67e	-0.04855966
151	0x3c68431f	0.014176159
152	0xbea7f39f	-0.32803056
153	0x3dade9c8	0.08491856
154	0xbd9a43e0	-0.075324774
155	0xbd6ad4d8	-0.05733189
156	0xbfbe7b06	-1.4881294
157	0xbe198d18	-0.14995229
158	0xbe5fc172	-0.21851137
159	0xbd3abf27	-0.045592453
160	0xbe87b6d4	-0.26506674
161	0xbe9124f8	-0.28348517
162	0xbdbec2b0	-0.093144774
163	0xbe478e40	-0.19487858
164	0xbf8dd023	-1.1079143
165	0x3e7bd9b6	0.24594769
166	0x3eabe07a	0.335697
167	0xbeee073d	-0.46489897
168	0x3dbacd40	0.091211796
169	0x3c540620	0.012940913
170	0xbd553954	-0.052056625
171	0xbe402fe5	-0.1876827
172	0x3e8aeeba	0.2713526
173	0xbdaba814	-0.08381668
174	0x3d9c61d0	0.07635844
175	0x3d53bf28	0.051695973
176	0xbe781aaa	-0.24228922
177	0xbb1d7280	-0.0024024546
178	0xbe8938a6	-0.26801032
179	0xbde40282	-0.11133291
180	0xbe106e3b	-0.1410455
181	0xbeb84146	-0.359873
182	0x3f19f5b1	0.6014052
183	0x3e9bb388	0.3041041
184	0xbf5d4c6d	-0.8644474
185	0xbe8cd243	-0.27504167
186	0x3ebd4b8c	0.369717
187	0xbe198d7a	-0.14995375
188	0xbeb27df0	-0.34861708
189	0xbe3d36df	-0.18477963
190	0xbd7fcec0	-0.06245303
191	0xbeb8b1ea	-0.36073238
192	0x3e0477d2	0.12936333
193	0xbe8c31bd	-0.27381697
194	0xbe2fd47e	-0.17170903
195	0xbe2f1cce	-0.17100832
196	0x3d2e1850	0.042503655
197	0xbe427b75	-0.18992408
198	0x3c4c98c0	0.01248759
199	0xbe0621ca	-0.13098827
200	0xbe318684	-0.1733647
201	0x3d8ca684	0.06867698
202	0xbdf2774a	-0.11839159
203	0xbe2a9153	-0.16657
204	0x3e980d2b	0.29697546
205	0xbe7d9090	-0.24762177
206	0x3d575bb6	0.052577697
207	0xbfe7eab7	-1.8118504
208	0xbde7592c	-0.11296305
209	0x3e4cdc0d	0.20005818
210	0x3dd4e67c	0.10395524
211	0x3e8a1867	0.26971743
212	0xbfc1c101	-1.5137025
213	0x3df88107	0.12133985
214	0xbe66b329	-0.22529282
215	0x3ea34622	0.31889445
216	0x3bb6eb82	0.005582274
217	0xbe99d673	-0.30046424
218	0x3e63ada3	0.22234206
219	0x3d89b63a	0.0672421
220	0x3bb8e6e7	0.00564276
221	0x3e4f5e54	0.20250827
222	0x3cab34cd	0.0208992
223	0xbd0a5432	-0.0337717
224	0xbdabebb2	-0.08394565
225	0x3e052836	0.1300362
226	0x3e2ce954	0.16885883
227	0xbdb698ae	-0.0891584
228	0x3ce02ab0	0.027364105
229	0xbdfb4924	-0.1226981
230	0xbe2692fe	-0.1626701
231	0x3cfb8720	0.030704081
232	0xbe5c9d52	-0.21544388
233	0x3e412e0e	0.18865225
234	0x3b0e6e80	0.0021733344
235	0xbce0add0	-0.02742663
236	0xbe631c48	-0.22178757
237	0xbe8b1504	-0.2716447
238	0xbe1fcd66	-0.15605697
239	0x3ca9bd60	0.020720184
240	0x3ca18d40	0.019720674
241	0x3d0c4740	0.034247637
242	0x3d9acc20	0.07558465
243	0x3e6c4098	0.23071516
244	0xbd642be4	-0.05570592
245	0xbdf8ab38	-0.121420324
246	0xbe1adc07	-0.15122996
247	0x3e25dc4e	0.16197321
248	0xbe79781b	-0.24362223
249	0x3b84ef80	0.004056871
250	0x3dc575ac	0.09641585
251	0xbd2f9a44	-0.04287173
252	0xbf27595f	-0.65370744
253	0xbeb61938	-0.35566115
254	0x3dc93c94	0.098260075
255	0xbe4c2e5b	-0.19939558

fc1.bias f4 [128]
0	0xbd82c6d8	-0.06385583
1	0xbdd65d47	-0.1046701
2	0x3e28958e	0.164633
3	0xbec8343c	-0.39102352
4	0xbdb5588c	-0.088547796
5	0xbe8270ca	-0.25476676
6	0xbe47a860	-0.19497824
7	0xbdda1bec	-0.10649857
8	0x3d31578a	0.043296374
9	0xbd3a64a0	-0.04550612
10	0xbe0dde84	-0.13854414
11	0xbeb1702e	-0.346559
12	0xbe882787	-0.26592657
13	0xbd3f27b2	-0.046668716
14	0xbe35fa40	-0.17771244
15	0x3f065ab8	0.52482176
16	0xbd626094	-0.055267885
17	0xbd724400	-0.05914688
18	0xbe13f3fd	-0.14448543
19	0xbe49cb18	-0.1970638
20	0xbe8e3cef	-0.27780864
21	0x3da316b1	0.079633124
22	0xbecb1656	-0.39665478
23	0x3d64281e	0.05570232
24	0x3e10bf7e	0.14135548
25	0xbe91dcbb	-0.28488716
26	0xbeb62271	-0.35573152
27	0xbdf3e786	-0.11909394
28	0x3d934b2f	0.071920745
29	0xbd11a6d1	-0.03555948
30	0xbe85cc68	-0.26132512
31	0xbe8a7ba6	-0.2704746
32	0xbe856f85	-0.26061645
33	0xbe38b972	-0.18039492
34	0xbd65f7bc	-0.05614446
35	0x3bfe4aa3	0.0077603622
36	0x3e564db4	0.20928079
37	0xbecf52c9	-0.40492848
38	0xbe7db5d4	-0.24776393
39	0x3e8a65b0	0.27030706
40	0xbe74a259	-0.23890056
41	0x3dc343d7	0.09534424
42	0xbe84f172	-0.25965458
43	0xbea0e42e	-0.31424087
44	0xbe5832ce	-0.2111313
45	0xbea15a67	-0.31514284
46	0xbde35759	-0.111006446
47	0xbec7d8cc	-0.3903259
48	0x3dd4c5e5	0.10389308
49	0xbe518428	-0.2046057
50	0xbe1732ef	-0.14765523
51	0xbe356b66	-0.1771675
52	0xbe6685ab	-0.22511928
53	0xbe0cb880	-0.13742256
54	0xbd81a9a2	-0.06331183
55	0xbd1c5aae	-0.038172416
56	0x3eca1831	0.39471582
57	0xbda0e100	-0.07855415
58	0xbe7be355	-0.24598439
59	0x3e0a0dd6	0.1348184
60	0x3c8f672f	0.017505256
61	0x3da7af7e	0.08187769
62	0xbdf7d2d6	-0.12100761
63	0xbedb54ac	-0.42838037
64	0xbe9a7851	-0.3016992
65	0xbe2a6191	-0.16638781
66	0xbeb833cd	-0.3597702
67	0xbe3abe74	-0.18236715
68	0xbe78fd5d	-0.243154
69	0xbe6a6d75	-0.22893317
70	0xbe9d19b8	-0.30683684
71	0xbbf47060	-0.007459685
72	0xbc263f15	-0.010146876
73	0xbe3c0f40	-0.18365192
74	0xbe9338e5	-0.28754345
75	0x3e84b37b	0.25918183
76	0xbe26a9e2	-0.16275743
77	0xbd97385f	-0.07383799
78	0xbc8c1dde	-0.017104086
79	0x3eb478da	0.35248452
80	0xbe336f1a	-0.1752285
81	0xbe77f1c3	-0.24213319
82	0xbe25b420	-0.16181993
83	0xbe935387	-0.28774664
84	0xbdc8c258	-0.09802693
85	0xbd831c99	-0.06401939
86	0x3de78b3f	0.11305856
87	0xbe689b87	-0.22715579
88	0xbda37595	-0.07981411
89	0xbe9fd4bd	-0.31216994
90	0x3d16661d	0.036718477
91	0x3e119334	0.1421631
92	0x3d48f828	0.049064785
93	0xbe4ac3e4	-0.19801289
94	0xbe330ddc	-0.17485756
95	0xbdf67ff4	-0.12036124
96	0xbe8bbff0	-0.27294874
97	0xbe23bf8b	-0.15991037
98	0x3d32889f	0.043587323
99	0xbdc1f783	-0.09471037
100	0xbe8d4a17	-0.2759559
101	0xbe5ea883	-0.2174397
102	0x3d9c6720	0.07636857
103	0xbc4c9c92	-0.012488501
104	0x3e1e7344	0.15473658
105	0x3d2e7100	0.042588234
106	0x3c06d186	0.008228665
107	0x3d4639d8	0.048395008
108	0x3db9f7a5	0.090804376
109	0xbd2a2a34	-0.041544154
110	0x3cada4f9	0.02119683
111	0x3dfdbbfa	0.12389369
112	0xbdf833be	-0.12119244
113	0x3e0b5655	0.13607152
114	0x3dcb1856	0.09916751
115	0xbe2dcfff	-0.16973875
116	0xbdfe5f0c	-0.124204725
117	0xbe6a7135	-0.22894748
118	0xbda1bea8	-0.07897693
119	0xbea17202	-0.31532294
120	0xbe97bb25	-0.29634967
121	0x3a749c0d	0.00093311147
122	0x3d98b658	0.07456654
123	0xbe14ae7c	-0.14519686
124	0x3c91e7c0	0.017810702
125	0x3e46979b	0.1939377
126	0xbca5b6fa	-0.020228852
127	0xbe8d698f	-0.27619597

fc2.weight f4 [128, 128]
0	0x3d333da2	0.04375995
1	0x3d6bb82c	0.057548687
2	0xb90aad13	-0.00013225181
3	0xbd5263b2	-0.051364608
4	0xbd9cb779	-0.07652182
5	0xbdc27696	-0.09495275
6	0xbd89bee3	-0.06725862
7	0x3d1117a7	0.035422947
8	0xbd1e8c37	-0.038707938
9	0x3ce0fb7e	0.02746367
10	0xbd4fb5b4	-0.050710395
11	0x3abf576f	0.0014598201
12	0x3d3f978c	0.046775386
13	0xbd6cebcb	-0.057842057
14	0x3db0f411	0.08640302
15	0x3d09d12d	0.03364675
16	0xbd95c68d	-0.07313261
17	0xbdc6b7d1	-0.09703029
18	0xbbbe7250	-0.005811967
19	0x3d768ce6	0.060192965
20	0xbd75a2a4	-0.05996956
21	0x3d44401e	0.04791271
22	0xbe020566	-0.12697372
23	0xbd1de3de	-0.03854739
24	0xbdc303f2	-0.09522237
25	0xbcc8f119	-0.024529027
26	0xbdfca8e6	-0.12336902
27	0xbce2fc7c	-0.027708285
28	0xbd64ed82	-0.055890568
29	0xbdb23d88	-0.087031424
30	0x3d848cb7	0.06472152
31	0x3d3a68d0	0.045510113
32	0x3d345a9e	0.04403173
33	0xbda933bb	-0.0826182
34	0x3d8843d0	0.06653559
35	0xbd02d516	-0.031941496
36	0xbd4d4c8a	-0.05012182
37	0x3d6ac20c	0.057313964
38	0xbd82b91e	-0.063829646
39	0xbdbb89fd	-0.091571786
40	0x3d127fb8	0.035766333
41	0x3d3ea8c1	0.046547655
42	0x3cdfe488	0.027330652
43	0x3c8c1ae3	0.017102664
44	0xbcc80537	-0.02441655
45	0xbd6b775f	-0.057486888
46	0x3db4d819	0.0883028
47	0xbd95fa3b	-0.07323118
48	0xbc2b753f	-0.010464965
49	0x3d53b81e	0.05168926
50	0x3d8ae453	0.06781831
51	0xbcba20b8	-0.02272068
52	0x3db2a5fd	0.08723066
53	0xbd85ffcb	-0.06542929
54	0x3d52ba16	0.051446997
55	0x3c1561b3	0.009117532
56	0xbcc27cd9	-0.023741173
57	0x3d0148cb	0.03156356
58	0xbda504a6	-0.08057527
59	0xbd05a6aa	-0.032629646
60	0xbd9ee645	-0.07758764
61	0xbc9fb756	-0.019496601
62	0x3d9fef1d	0.07809279
63	0xbda58b5e	-0.08083223
64	0x3cded70e	0.027202155
65	0x3ab3c2c0	0.0013714656
66	0x3d898b20	0.06715989
67	0xbd915be7	-0.07097607
68	0xbdabf0fb	-0.08395573
69	0x3bcd6400	0.0062680244
70	0xbc9f1566	-0.019419383
71	0xbd99f34b	-0.075171076
72	0x3d157c5f	0.036495563
73	0xbcebd44f	-0.02878776
74	0xbae311c0	-0.0017324015
75	0xbb10f48e	-0.0022118422
76	0xbd184a7a	-0.0371804
77	0x3be9121a	0.0071127536
78	0x3d7c37cf	0.06157666
79	0xbd87a89d	-0.06623957
80	0xbd8d9b37	-0.069143705
81	0x3d95da61	0.07317043
82	0xbc9312a8	-0.017953232
83	0xbd777f1c	-0.060423955
84	0xbd395743	-0.045249235
85	0xbdaac098	-0.083375156
86	0xbc007c55	-0.007842143
87	0xbcc2bc78	-0.02377151
88	0x3cbe5704	0.023234852
89	0x3da5ddf6	0.08098976
90	0x3cf5f6b8	0.030024871
91	0xbd80a42b	-0.062813126
92	0xbd4dd65f	-0.05025327
93	0xbc3a27aa	-0.011361996
94	0x3c44a898	0.0120030865
95	0x3d715cd2	0.05892641
96	0x3d5df6f2	0.054190584
97	0xbd1c92de	-0.038226
98	0xbd3b2814	-0.04569252
99	0x3b35604b	0.0027675803
100	0x3d78f746	0.060782693
101	0x3d6ccf25	0.057814736
102	0xbda1ca96	-0.07899968
103	0xbda39169	-0.07986719
104	0xbd9eeef9	-0.07760424
105	0xbd840f33	-0.064482115
106	0xbd951b1d	-0.07280562
107	0xbdb4d673	-0.088299654
108	0x3d5d8737	0.05408403
109	0xbd064008	-0.03277591
110	0x3d61fbe4	0.055171862
111	0x3d9acdef	0.0755881
112	0xbbffb340	-0.0078033507
113	0xbdb401ef	-0.08789431
114	0xbbe83ee1	-0.007087574
115	0xbd4e53c2	-0.050372846
116	0xbd11af24	-0.035567418
117	0x3cebbab4	0.02877555
118	0xbd88cec1	-0.0668006
119	0xbcb533d4	-0.02211944
120	0x3c2ccb93	0.010546583
121	0x3d979fd0	0.07403529
122	0x3d17d81f	0.037071344
123	0x3bd847a0	0.0066003352
124	0x3d1e016e	0.038575582
125	0x3d3853bc	0.04500173
126	0x3c240e29	0.010013142
127	0xbd40cf5b	-0.04707275
128	0xbcd5cbc4	-0.02609814
129	0xbdb26c85	-0.08712105
130	0xbe13d864	-0.14438015
131	0xbe1f8f86	-0.15582094
132	0xbddad7b8	-0.10685676
133	0xbe72b90c	-0.23703402
134	0xbe44d6a4	-0.19222504
135	0x3cafb0c7	0.021446599
136	0x3df7dd4b	0.12102755
137	0xbd9589d0	-0.07301676
138	0xbd85f195	-0.06540219
139	0x3d164331	0.036685172
140	0x3d51c430	0.05121249
141	0xbe393ab5	-0.18088801
142	0x3cebe8e4	0.028797574
143	0xbe4200e2	-0.1894565
144	0xbcee4eb8	-0.02909027
145	0xbe9e6618	-0.30937266
146	0xbbb5e949	-0.0055514914
147	0xbd8265d2	-0.06367077
148	0x3cdda0f8	0.027054295
149	0xbcae7947	-0.021298064
150	0xbd93c2e6	-0.07214908
151	0xbd7cd8eb	-0.061730307
152	0xbd752a45	-0.059854764
153	0xbdbae204	-0.0912514
154	0x3e594287	0.21216784
155	0xbe4c2df2	-0.19939402
156	0xbd26b669	-0.040701304
157	0x3e02a222	0.12757161
158	0x3d97c4a3	0.07410552
159	0x3de7452f	0.112924926
160	0xbbc670b0	-0.006055914
161	0xbdaa3825	-0.0831149
162	0xbd5167dc	-0.05112444
163	0x3e312167	0.17297898
164	0xbd48f1a1	-0.04905856
165	0xbd054099	-0.03253231
166	0x3d63b72e	0.055594616
167	0xbe4e2a7f	-0.20133398
168	0xbc490cf0	-0.012271151
169	0xbc674e6f	-0.014117821
170	0xbcfe5824	-0.031047888
171	0xbe3482db	-0.17628042
172	0xbcbe84db	-0.02325671
173	0xbe341e2c	-0.17589635
174	0x3babea97	0.005246471
175	0x3cfbc1ea	0.030732114
176	0xbe8715f2	-0.2638393
177	0x3c915ac8	0.017743483
178	0x3ba99350	0.0051750317
179	0xbd55607f	-0.05209398
180	0x3d99f29f	0.075169794
181	0xbddd380b	-0.10801705
182	0xbd979cb7	-0.07402938
183	0x3c272cbc	0.010203537
184	0xbeaf03d4	-0.34182608
185	0x3e245392	0.16047505
186	0xbda996bc	-0.082807034
187	0x3d026814	0.031837538
188	0xbd046b8a	-0.03232912
189	0xbd215d27	-0.039395478
190	0xbd1c5ec0	-0.0381763
191	0xbe299ffa	-0.16564932
192	0xbc1560c5	-0.00911731
193	0xbda5e416	-0.081001446
194	0x3cea3d70	0.028593749
195	0xbe29f8ab	-0.16598766
196	0xbc5598f8	-0.013036959
197	0x3d8283b1	0.063727744
198	0xbda976ec	-0.08274636
199	0xbd575382	-0.052569874
200	0xbd274085	-0.040833015
201	0xbea18f1d	-0.315545
202	0xbc416b98	-0.0118054375
203	0xbd0c59ec	-0.034265444
204	0x3d1cb19b	0.038255315
205	0x3c63f157	0.01391252
206	0x3dd6944b	0.104775034
207	0xbe43e51c	-0.19130367
208	0x3ce59939	0.028027164
209	0x3db0e737	0.08637851
210	0xbd2b5b09	-0.041834865
211	0xbd2b56e8	-0.041830927
212	0xbbca499e	-0.0061733266
213	0xbea0a27a	-0.3137396
214	0xbe34ab45	-0.17643459
215	0x3b962d10	0.0045830086
216	0xbc8b6ca7	-0.017019583
217	0xbda41be2	-0.08013131
218	0xbe0121b0	-0.12610507
219	0xbe85e6b3	-0.26152572
220	0x3b89b6c0	0.0042026937
221	0xbd66ab9d	-0.056316007
222	0xbd875c41	-0.06609393
223	0xbd64d82d	-0.055870224
224	0x3c241a30	0.010016009
225	0x3bd507d0	0.0065011755
226	0xbcaf66e4	-0.021411367
227	0xbd33bfc7	-0.043884065
228	0x3d1c6a72	0.03818745
229	0x3db33684	0.087506324
230	0xbdcf14e2	-0.10111405
231	0xbc697a53	-0.014250356
232	0xbe019669	-0.12655033
233	0x3d619a5a	0.05507884
234	0xbdb5ec5b	-0.08882972
235	0xbdd5e269	-0.10443575
236	0xbda68c21	-0.08132196
237	0x3dac1181	0.08401776
238	0x3d04e13f	0.032441374
239	0x3d898552	0.06714882
240	0xbbae4aa0	-0.0053189546
241	0xbe415d91	-0.18883349
242	0x3d9e6d37	0.07735675
243	0xbe70a164	-0.23499066
244	0xbdf77bb9	-0.12084145
245	0x3dea3cc9	0.11437375
246	0x3d8299bd	0.063769795
247	0xbd8ab657	-0.0677306
248	0xbd324db6	-0.043531142
249	0x3cafb2cb	0.02144756
250	0xbda1a832	-0.07893409
251	0x3d25f316	0.040515028
252	0xbcd86888	-0.026417032
253	0xbe1b5223	-0.15168051
254	0x3c9b8a93	0.018986976
255	0x3d5d8cf6	0.05408951

fc2.bias f4 [128]
0	0xbdbfa728	-0.093580544
1	0xbdc62768	-0.09675485
2	0xbda892c9	-0.08231122
3	0xbdd1a9a8	-0.102374375
4	0xbe1d42fa	-0.15357581
5	0xbd85c0ec	-0.065309376
6	0xbd94cab3	-0.07265224
7	0xbd819337	-0.06326907
8	0xbd471fcb	-0.048614305
9	0xbdcea5b5	-0.100902
10	0xbda6e583	-0.08149245
11	0xbd9b52fd	-0.07584188
12	0xbdc126a9	-0.09431202
13	0xbd99cda4	-0.07509926
14	0xbdc6f429	-0.097145386
15	0x3d6881b5	0.056764323
16	0xbcf39235	-0.029732803
17	0xbd064b29	-0.032786522
18	0xbd5d5194	-0.054032877
19	0xbdee0001	-0.116210945
20	0xbd3e4ccd	-0.04645996
21	0xbe028dc9	-0.12749399
22	0xbd883549	-0.06650788
23	0xbe22c73d	-0.15896316
24	0xbdb5be22	-0.088741556
25	0xbd4697c7	-0.04848459
26	0xbde3f34b	-0.11130389
27	0xbd6e18d5	-0.05812915
28	0xbd4a88a8	-0.04944673
29	0xbdfed9a4	-0.124438554
30	0xbd807d98	-0.06273955
31	0xbddf329b	-0.10898324
32	0xbdc7047a	-0.09717651
33	0xbd5668a2	-0.05234588
34	0xbda33b4d	-0.07970295
35	0xbdd22f7f	-0.102629654
36	0xbd8e0a11	-0.06935514
37	0xbd81b1a1	-0.06332708
38	0xbdae679e	-0.08515857
39	0xbd2b4000	-0.041809082
40	0xbd38f7fe	-0.04515838
41	0x3b8aeff0	0.0042400286
42	0x3e700a99	0.23441543
43	0xbc78b85b	-0.0151806725
44	0xbda01fc6	-0.0781856
45	0x3ce9a8d4	0.028522886
46	0xbdb569a8	-0.08858043
47	0x3e3be2d8	0.18348253
48	0xbd0b4505	-0.03400137
49	0xbdb5381a	-0.08848591
50	0xbc8b1460	-0.016977489
51	0xbe20b3ab	-0.15693538
52	0xbd56aae7	-0.05240908
53	0xbdcf2dd7	-0.10116165
54	0xbd9ef155	-0.07760874
55	0xbdf66e2c	-0.12032732
56	0xbda8f843	-0.08250477
57	0xbcfea243	-0.031083232
58	0xbd81c055	-0.063355125
59	0xbd310924	-0.043221608
60	0xbdbfd723	-0.09367206
61	0xbd87b2ba	-0.06625886
62	0xbd6e3204	-0.058153167
63	0xbdb07488	-0.086159766
64	0xbd2638f2	-0.04058165
65	0x3e9a0b75	0.30086866
66	0xbd945cd3	-0.07244267
67	0xbd9511bc	-0.07278773
68	0xbd5218f4	-0.05129333
69	0xbd009516	-0.03139218
70	0xbde5de8c	-0.11224088
71	0xbd40db52	-0.04708416
72	0xbd80e23e	-0.06293152
73	0xbdaf6fa6	-0.08566217
74	0x3ec178b6	0.37787408
75	0xbd60194c	-0.054711625
76	0xbdda44ed	-0.10657678
77	0xbdcdaa1f	-0.10042214
78	0x3cc36949	0.023853915
79	0xbceac034	-0.028656103
80	0xbdca0df9	-0.09865946
81	0xbdb58026	-0.08862333
82	0xbe56a42a	-0.20961061
83	0xbd8b7483	-0.06809332
84	0x3e54299a	0.20718995
85	0xbd8b6cfd	-0.06807897
86	0xbd17e07d	-0.037079323
87	0xbe000e32	-0.12505415
88	0xbd328e71	-0.043592874
89	0x3c594e60	0.013263315
90	0xbde06f22	-0.10958697
91	0xbd16ef5b	-0.03684936
92	0xbd84fdb1	-0.064937
93	0xbe0aa97e	-0.13541219
94	0xbcd015d7	-0.025401039
95	0xbdafe391	-0.08588327
96	0xbe47210a	-0.19446197
97	0xbdb8d8f2	-0.09025754
98	0xbd8f9eb5	-0.07012693
99	0xbd386ca0	-0.045025468
100	0xbd56a86e	-0.05240672
101	0xbd500e32	-0.050794788
102	0x3e63b135	0.22235568
103	0xbd6660de	-0.056244723
104	0xbd4e027b	-0.050295334
105	0xbdb5fb8d	-0.0888587
106	0xbe7b5fb3	-0.24548225
107	0x3e2ce841	0.16885473
108	0xbda8bbb0	-0.082389235
109	0xbde88444	-0.11353353
110	0xbd31005d	-0.043213237
111	0x3db8246c	0.08991322
112	0xbd7201ac	-0.059083626
113	0xbdd3b09a	-0.103364184
114	0xbd752957	-0.059853878
115	0x3ec3bf3b	0.38231835
116	0xbdbb99b2	-0.091601744
117	0xbe12706a	-0.14300695
118	0xbe01e7a8	-0.12686026
119	0xbdbf5f62	-0.09344365
120	0xbd80acc4	-0.062829524
121	0xbe6f2d55	-0.23357137
122	0xbdee06c5	-0.11622385
123	0xbd68fa19	-0.056879137
124	0xbdb2fafd	-0.087392785
125	0xbd118d3a	-0.035535075
126	0x3ee820b9	0.45337465
127	0xbbb0d948	-0.0053969957

fc3.weight f4 [6, 128]
0	0x3db804f2	0.08985318
1	0xbc603416	-0.013684293
2	0x3cde4fff	0.027137754
3	0xbd0c6e2b	-0.03428475
4	0x3d8e30e3	0.06942918
5	0xb90915ab	-0.0001307341
6	0x3d429aff	0.047511097
7	0x3d4464b9	0.04794762
8	0xbcdc95bb	-0.026926866
9	0xbd08b840	-0.03337884
10	0xbc486bff	-0.0122327795
11	0xbd1e9a5e	-0.038721435
12	0xbd9846a5	-0.074353494
13	0x3c73aac2	0.014872255
14	0xbdad7ce2	-0.08471085
15	0x3d29a186	0.041413806
16	0x3ca50554	0.020144142
17	0x3ce1797e	0.027523752
18	0x38dce47c	0.00010532976
19	0x3d034810	0.032051146
20	0x3d5c1d1c	0.0537387
21	0x3dae7389	0.0851813
22	0x3d623d6b	0.055234354
23	0xbd2bf7f2	-0.041984506
24	0x3d7d47bf	0.061836
25	0x3ced6d23	0.028982705
26	0x3d90bbb2	0.0706705
27	0x3d60316e	0.05473464
28	0x3d821498	0.06351584
29	0x3d35f464	0.044422522
30	0xbb5eea0a	-0.003401401
31	0xba39449c	-0.00070674135
32	0x3cc19c61	0.023634138
33	0x3c7cd675	0.01543199
34	0xbd0be8a5	-0.034157414
35	0xbd848de2	-0.064723745
36	0xbd2471d4	-0.040147617
37	0xbd389a41	-0.045068983
38	0xbd620a3f	-0.055185553
39	0xbe497668	-0.19674075
40	0x3d522c51	0.051311795
41	0xbbf5b3c9	-0.0074982387
42	0xbf32d6f5	-0.6985925
43	0x3bf4061f	0.0074470188
44	0x3cfdae83	0.030967003
45	0xbe6444cc	-0.22291869
46	0xbdaa18ae	-0.083054885
47	0xbf4dfae6	-0.80460966
48	0x3cedfc19	0.029050874
49	0x3d1c5b96	0.03817328
50	0x3e16c31c	0.14722866
51	0xbd986743	-0.074415706
52	0x3cc975d4	0.024592318
53	0x3d457e49	0.048216138
54	0x3d0ee730	0.034888446
55	0x3cc40186	0.023926508
56	0x3d8e6664	0.06953123
57	0x3caab54a	0.020838398
58	0xbd6f0082	-0.058350094
59	0xbe089deb	-0.13341491
60	0xbe7ce01c	-0.24694866
61	0x3cb2069f	0.021731673
62	0x3d398a27	0.045297768
63	0x3cf39f88	0.029739156
64	0xbd6d8502	-0.057988174
65	0x3eec2c80	0.461277
66	0x3c6d57fe	0.014486311
67	0xbf09b5af	-0.5379285
68	0xbb815e6e	-0.0039480245
69	0xbd51a432	-0.05118198
70	0xbac7e31b	-0.0015250178
71	0xbd3bc811	-0.045845095
72	0x3bc98de6	0.006150949
73	0x3cc2ed9b	0.02379494
74	0x3efdaa0c	0.49543798
75	0x3d0b0051	0.03393585
76	0x3b545d52	0.0032404256
77	0x3ca8734d	0.020562792
78	0xbf4909c8	-0.7853055
79	0x3cebb620	0.028773367
80	0x3c6350f8	0.013874285
81	0x3c929ad7	0.017896099
82	0xbe5e7df8	-0.21727741
83	0xbc8156d7	-0.015788479
84	0x3e6a6640	0.22890568
85	0xbd61fc99	-0.055172537
86	0x3c0458e3	0.008077833
87	0x3e0b6265	0.13611753
88	0xbc2bf968	-0.010496475
89	0xbe2867a7	-0.1644579
90	0x3c976ce4	0.01848454
91	0xbd865b40	-0.06560373
92	0xbc5e1488	-0.0135547
93	0x3cb4001b	0.021972707
94	0x3b2eb959	0.0026660769
95	0x3b64379d	0.0034823187
96	0x3d81c105	0.06335644
97	0xbd9dfa19	-0.07713718
98	0x3cafb4a7	0.021448446
99	0x3d04eb04	0.03245069
100	0x3dc14c6c	0.094384044
101	0x3c189d31	0.009314821
102	0x3eb53c26	0.35397452
103	0xbd2d4abe	-0.042307608
104	0x3d39100d	0.045181323
105	0xbbc4f41d	-0.006010546
106	0x3c6af66e	0.01434098
107	0x3eb4e081	0.35327533
108	0x3c53dfa7	0.012931741
109	0x3e501396	0.20319971
110	0x3c9d8828	0.019229963
111	0xbd88a060	-0.06671214
112	0x3da2402f	0.07922398
113	0x3c1fd514	0.009755392
114	0x3d23bd5f	0.03997552
115	0x3f112d04	0.56709313
116	0x3d9c479c	0.07630846
117	0x3dfdd2f4	0.12393752
118	0x3c9e6ae8	0.019338086
119	0xbc5c3f52	-0.013442831
120	0x3dec43de	0.11536382
121	0x3e9bf5dc	0.30461013
122	0xbf011082	-0.50415814
123	0x3d2db8b8	0.04241249
124	0xbd84416a	-0.06457789
125	0x3d3c1cae	0.04592579
126	0x3f168eec	0.5881183
127	0x3e8041fb	0.2505034
128	0x3c762c6b	0.0150252385
129	0x3cd91b25	0.026502201
130	0x3cf6ee23	0.03014285
131	0x3d1c4943	0.038155805
132	0x3cf3350c	0.02968838
133	0xbd1201b0	-0.03564614
134	0x3cbfced5	0.023414055
135	0x3dc6c7c1	0.09706069
136	0xbd752f04	-0.05985929
137	0xbc6acb88	-0.014330752
138	0x3d9ce6c9	0.07661206
139	0xb8bad000	-8.907914e-05
140	0x3ddf1e3a	0.10894437
141	0xbc61db1b	-0.013785149
142	0xbd987e7d	-0.07446001
143	0x3e93f373	0.28896675
144	0x3d158a5c	0.036508903
145	0xbd22916a	-0.03968946
146	0xbd430096	-0.04760798
147	0x3c13a906	0.009012466
148	0x3cb6a073	0.022293305
149	0x3d31ad2a	0.043378033
150	0x398102ec	0.00024606974
151	0xbd996963	-0.07490804
152	0xbd6b055c	-0.057378158
153	0x3d489356	0.048968635
154	0xbd836a92	-0.06416811
155	0xbc696938	-0.0142462775
156	0xbd9879f7	-0.07445138
157	0x3cf84230	0.030304998
158	0x3c3a5573	0.011372912
159	0x3d64145d	0.055683482
160	0xbb92186f	-0.004458479
161	0x3d2ac7b6	0.041694365
162	0xbd3682a4	-0.044558182
163	0x3d32458d	0.04352336
164	0x3ca6cbb0	0.020360798
165	0x3d90ae27	0.07064467
166	0x3d04c7c4	0.032417074
167	0xbe63475b	-0.22195189
168	0x3d45b709	0.04827026
169	0xbc76ac72	-0.015055763
170	0xbf31ba12	-0.69424546
171	0x3de58d9c	0.112086505
172	0x3c283c82	0.010268332
173	0x3f29811c	0.6621263
174	0xbcac81a0	-0.021057904
175	0x3d5c0c56	0.053722702
176	0xbcfd7d0f	-0.030943422
177	0xbb5d118f	-0.003373239
178	0x3f01328d	0.5046776
179	0xbeca5930	-0.3952117
180	0xbd920eb8	-0.07131714
181	0xbda8b429	-0.08237488
182	0x3c18071e	0.009279041
183	0xbc8f5bfd	-0.017499918
184	0x3dbeca91	0.0931598
185	0x3ca723df	0.020402847
186	0x3cd05132	0.025429342
187	0x3e251d09	0.16124357
188	0x3e750b4a	0.23930088
189	0xbca67ad7	-0.020322246
190	0x3d1ca2e9	0.0382413
191	0xbd660062	-0.05615271
192	0x3d8b54c2	0.06803276
193	0x3e8e5964	0.27802575
194	0xbcac8d89	-0.021063583
195	0xbe57983f	-0.21054171
196	0x3d05bc4f	0.03265029
197	0x3c0a946b	0.008458237
198	0xbe41da11	-0.18930842
199	0xbca8625d	-0.020554716
200	0xbbdac0b5	-0.0066758045
201	0x3d87e491	0.066353925
202	0x3ec30e28	0.38096738
203	0xbda129b8	-0.07869285
204	0xbcd75e80	-0.026290178
205	0x3c44d409	0.012013444
206	0x3ea163ad	0.3152136
207	0x3cdcfd4b	0.026976248
208	0x3d274ff8	0.04084775
209	0x3ca921b7	0.02064596
210	0x3da84c0d	0.082176305
211	0xbd44e75f	-0.048072215
212	0x3e493de5	0.19652517
213	0x3d671d3e	0.056424372
214	0xbdcf3912	-0.10118307
215	0xbd6144a9	-0.05499712
216	0x3daa26d6	0.083081886
217	0xbe4007aa	-0.18752924
218	0xbd6b8c7d	-0.057507027
219	0xba530afa	-0.0008050647
220	0x3ce1281a	0.027484942
221	0xbd6bf32e	-0.05760496
222	0x3ccf020e	0.025269534
223	0x3daf0d39	0.08547444
224	0xbd7da17b	-0.061921578
225	0x3d98c7bc	0.07459971
226	0xbdc37e28	-0.09545547
227	0x3d52ab3e	0.05143284
228	0xbe8d5ad6	-0.27608365
229	0xbd7feb8c	-0.062480494
230	0x3ea4702b	0.32116827
231	0xbaddd8e8	-0.0016925605
232	0xbd565c2f	-0.052334007
233	0xbd013ddf	-0.031553145
234	0xbe5a4fc5	-0.21319492
235	0x3ea7715b	0.3270367
236	0x3bd51abe	0.006503432
237	0x3df425d0	0.11921275
238	0x3d0754f6	0.03304001
239	0xbe86b301	-0.26308444
240	0xbdaea94e	-0.08528386
241	0xbcb0e1c6	-0.021592032
242	0x3d164bfe	0.036693566
243	0x3ed5e054	0.4177271
244	0x3c002ac3	0.007822695
245	0x3e3f2d14	0.1866954
246	0x3d7a3109	0.06108192
247	0xbd652a9a	-0.05594883
248	0xbb8e1572	-0.0043360526
249	0x3df18dc6	0.11794619
250	0x3f18c939	0.5968204
251	0x3dcc41b6	0.09973471
252	0xba57d61f	-0.00082335057
253	0x3d1f839b	0.038943868
254	0x3f154d5c	0.58321166
255	0x3e086085	0.1331807

fc3.bias f4 [6]
0	0x3f3a8541	0.7285958
1	0x3f3a0158	0.726583
2	0x3f3a8f73	0.72875136
3	0x3f3a7756	0.7283834
4	0x3f3a990b	0.72889775
5	0x3f59e3a5	0.85112983
