ai/models/dqn_ep100.pth (torch, 77340 bytes, 6 tensors)

fc1.weight f4 [128, 10]
000000 9a a5 93 be 98 62 9c be d3 cf 4d be b9 2d 27 be
       -0.2883728 -0.3054397 -0.2009881 -0.16326036
000010 54 9e 96 be 30 11 1e 3d ee 6a 4e 3e fc ed ae 3d
       -0.2941767 0.03859061 0.20157978 0.08541486
000020 11 0b 21 be f0 a2 c0 bc 7d 61 b8 3d f0 64 2a bd
       -0.15726878 -0.023515195 0.090029694 -0.041600168
000030 8c 62 fb bc 02 d1 a2 3d ed 1e d0 3d 32 ce 85 be
       -0.03068664 0.07950021 0.101621486 -0.26133877
000040 ce f7 a2 be cf f3 9b be 23 f3 52 3e 7e a2 a7 3d
       -0.31829685 -0.3045945 0.20600562 0.0818529
000050 17 8f 53 be e7 99 78 be f5 04 6a 3e 2b 50 54 3e
       -0.20660053 -0.24277459 0.22853453 0.20733707
000060 eb 28 2f 3d 8a fb 12 3c 6f 90 d5 bf a5 98 95 3e
       0.04276363 0.008971104 -1.6684703 0.2921802
000070 22 be 9f 3e fe 17 6b be a0 ce 18 bc d1 06 1a be
       0.31199747 -0.22958371 -0.009326607 -0.15041663
000080 11 47 89 3e ed b9 a1 3e 80 28 36 3d 00 9b bb 3a
       0.26812032 0.31587163 0.044472218 0.0014313161
000090 50 67 b6 3d a8 63 39 3d 60 19 17 bd 46 91 2a be
       0.08906424 0.045261055 -0.036889434 -0.1665698
0000a0 58 c6 ec 3d 23 ec 7a be da 70 97 be 22 71 b1 bd
       0.115612686 -0.24504142 -0.29578286 -0.086641565
0000b0 53 8d 33 be 9a f3 8b bd 3c eb f8 3d 14 c5 82 bd
       -0.1753438 -0.06833573 0.121542424 -0.06385246
0000c0 ba 27 54 3e 98 c9 02 3d b1 63 a1 be 55 04 7e bd
       0.2071828 0.031930536 -0.3152137 -0.06201585
0000d0 a5 43 83 be cd 1a 95 bd 5a 3e 12 be 76 7f 87 3e
       -0.25637546 -0.072805025 -0.14281598 0.26464432
0000e0 f0 15 b5 3f 63 96 e4 3e 6e 48 09 3f cd 77 7f 3e
       1.414732 0.44645986 0.53626144 0.24948044
0000f0 ff ac 4f bb 53 36 1a be b7 21 06 3e 07 48 27 be
       -0.0031688807 -0.15059786 0.13098799 -0.1633607
000100 9b 18 1e 3e 1c c8 63 be ff 2f 00 be 73 6a 1c bc
       0.15439074 -0.22244304 -0.12518309 -0.009546864
000110 9e c3 68 3e ec 5c f7 bd 32 6f 62 3d 4b 2e 86 bd
       0.22730872 -0.1207827 0.055281825 -0.065517984
000120 04 19 76 be 36 bb 9e be 57 92 6e be c9 d7 11 be
       -0.2403298 -0.31002206 -0.23298012 -0.14242472
000130 59 d8 40 be e9 b6 0d be 29 63 d7 bc bf 31 9a be
       -0.1883253 -0.13839306 -0.0262924 -0.30116078
000140 1c 64 df bd 46 53 99 bd 67 ae 2e 3e b8 20 86 bd
       -0.10907766 -0.07486586 0.17058717 -0.06549209
000150 b9 6e 49 be 04 3e 9e be bc 3d ce bc b3 9e bf 3c
       -0.19671144 -0.3090669 -0.025175922 0.023391103
000160 0d 1b 06 bf d4 b1 39 be e4 73 fd bd 63 0c 22 be
       -0.52385026 -0.18134242 -0.1237562 -0.15825038
000170 68 1a bc 3d f5 59 80 be 80 df 27 3d 3c f1 8f be
       0.09184724 -0.25068632 0.04098463 -0.28113735
000180 e3 9a 30 be f0 e4 ca bc be 18 fe bd f0 45 36 3e
       -0.17246585 -0.024767369 -0.12407063 0.17800117
000190 f4 a9 fa bd 80 4c 77 be ae 41 44 3d 69 24 e5 3d
       -0.12239447 -0.24150276 0.0479142 0.11188585
0001a0 f5 fc 2b be e0 4c fe bd b2 1a 82 3d ce b1 66 3d
       -0.16795714 -0.124170065 0.06352748 0.05632191
0001b0 c1 ea 92 3e be 5a 27 bd e5 41 ef 3c 34 e4 4d 3e
       0.28694728 -0.040858023 0.029206226 0.20106584
0001c0 98 c6 94 be 67 5e af be e5 2b 20 bc 25 da 38 be
       -0.29057765 -0.3425171 -0.00977609 -0.18051966
0001d0 8e 2a f7 3e 62 19 b7 bc f5 8a d3 3d f1 06 45 be
       0.48274654 -0.02235097 0.10329238 -0.19240929
0001e0 1d 01 21 3e 88 57 b8 3b 61 a1 2d 3e 5a 44 6b be
       0.15723081 0.005625669 0.16956092 -0.22975293
0001f0 f0 60 da bc c0 f6 6d be 99 b8 41 be 74 cf f8 3d
       -0.026657552 -0.23238659 -0.18918075 0.121489435
000200 eb 38 5d 3d 49 e7 d8 3d 4c d8 f0 3d 7e 7c dd 3c
       0.05400936 0.10590989 0.11760005 0.027036902
000210 e2 f3 96 3e 4c 48 ca 3d 8c 2d bf be aa aa 8d be
       0.29482943 0.09877071 -0.37339437 -0.2766927
000220 29 bd 21 be c4 61 f6 bd f7 8a 66 be fc 45 3e be
       -0.15794815 -0.12030366 -0.22513948 -0.18581384
000230 cb 76 11 be a2 d0 99 bd b9 91 7c 3d 39 f6 24 3e
       -0.14205472 -0.07510497 0.06166241 0.16109551
000240 9c f9 83 3b 2c bf b3 be 6a 4d ea 3d 0a 87 8e 3d
       0.0040275585 -0.3510679 0.11440547 0.069593504
000250 1a 4c 7b bd a0 e2 ec bc ce 35 45 3d f1 d9 bb bc
       -0.061351873 -0.028916657 0.048147015 -0.022931071
000260 bf c4 de 3d ec 3c 0d be 81 16 53 3e 3d 1f 0d 3e
       0.1087737 -0.13792771 0.20614053 0.13781448
000270 7e 66 32 3f 29 bc aa 3d d1 39 96 bd 7b 51 da 3d
       0.6968764 0.0833667 -0.07335246 0.106600724
000280 2a ee 51 3e 8b 67 94 3c ec 47 b7 3e 67 92 9b be
       0.20501009 0.01811578 0.3579706 -0.30385134
000290 7d 73 21 bf bd c3 c5 bd 98 b6 37 3f 07 7c c8 3d
       -0.63066846 -0.09656475 0.7176299 0.09789281
0002a0 32 89 37 bf 36 79 ae be 10 4e 17 bf af 7c 21 3e
       -0.7169372 -0.34076852 -0.5910349 0.1577022
0002b0 2e 52 a8 be 81 99 cf 3d 16 94 b1 be 11 f1 5b 3e
       -0.32875198 0.101367004 -0.34683293 0.21478678
0002c0 44 e0 94 3e 02 9e e8 be e3 2e f0 be e6 5d 27 3e
       0.2907735 -0.4543305 -0.46910772 0.16344413
0002d0 05 c5 85 3e 01 e1 2a be 00 41 66 3c 5f 6e 89 3e
       0.26126876 -0.16687395 0.014053583 0.2684202
0002e0 d8 58 19 3d 4c d6 20 3e 33 c5 8e 3e 00 34 13 3d
       0.037438244 0.15706748 0.27884826 0.035938263
0002f0 a0 1b 5d bd b1 f9 6b be 9a 71 f9 bc 6d d2 65 be
       -0.053981423 -0.23044468 -0.030449677 -0.22443552
000300 12 a1 3b bd b3 59 63 3e 3e bc 9d 3c b2 80 34 bc
       -0.045807905 0.22202186 0.0192548 -0.0110170115
000310 59 39 dd 3d 21 cb 10 be bb dc 2c be 00 7d 9d 3d
       0.10801954 -0.14139988 -0.16881077 0.076898575
000320 56 cb 8f 3e 63 85 93 be 5f 35 b1 3e 41 5e b2 be
       0.2808482 -0.28812703 0.3461103 -0.34837535
000330 f5 6f 24 3e e6 68 b6 be ec 04 eb be c3 7c 48 3e
       0.16058333 -0.35626906 -0.45902193 0.19578843
000340 70 73 40 bf b1 22 de bd cc 08 04 be f3 0f b6 bd
       -0.75176144 -0.108464606 -0.1289398 -0.08889761
000350 72 94 61 be 55 03 da 3d b7 7d 12 be cb cb 98 be
       -0.22029284 0.10645167 -0.14305769 -0.29842982
000360 62 a9 fd 3c c4 c4 ea 3d b8 83 1a 3f ef fd a5 3d
       0.030964557 0.11463311 0.60357237 0.081050746
000370 39 dd 9c be 18 14 1a 3e 58 37 49 3c 3d 90 2c be
       -0.3063753 0.15046728 0.012281261 -0.16851898
000380 1d 4d c3 bd 8d ae 9b be 87 e8 b5 be b3 15 b6 be
       -0.095361926 -0.3040661 -0.35528967 -0.3556343
000390 58 b8 c3 bf 1b 9b 71 bd 4a f5 37 3e 00 00 7a bd
       -1.5290632 -0.05898581 0.17964664 -0.061035156
0003a0 ea a8 07 3e cc 3c 04 be 7e ea 04 be 07 71 29 be
       0.1324803 -0.12913817 -0.12980077 -0.16547023
0003b0 61 42 88 be 2b 70 60 3e 41 cf 70 bf 1e e2 1b bc
       -0.26613143 0.21917789 -0.94066244 -0.00951436
0003c0 d6 c4 88 3c 13 79 b0 3d c7 17 c3 be ea 6c b7 be
       0.016695421 0.08616843 -0.38104078 -0.35825282
0003d0 06 3b 74 3d a7 da 34 3c c9 fb 99 be 9e 1c 53 3d
       0.0596266 0.011038459 -0.3007491 0.051540963
0003e0 ab 0b 93 3d 10 48 3c 3d de c5 48 3d 70 0b f7 bc
       0.0717996 0.04596716 0.049016826 -0.030156821
0003f0 85 5e 9c be 05 7c f1 bd a0 64 91 3d 21 8b 6b 3e
       -0.30540863 -0.11791233 0.07099271 0.23002292

fc1.bias f4 [128]
000000 28 9d 7f bd d5 ed 22 be 16 b3 eb 3d ed a3 8e be
       -0.062405735 -0.15911038 0.11508767 -0.2785944
000010 a0 18 64 bc 63 92 98 be 39 b6 9e 3d af 65 98 3d
       -0.013921887 -0.29799184 0.077496 0.074412696
000020 a0 40 0a 3e e3 c9 0b be 32 1c 3e 3e 0b 46 14 be
       0.13501215 -0.13651232 0.18565443 -0.14479844
000030 c9 61 9f be 1c 83 9d be a4 f4 58 3d 63 72 a8 be
       -0.31129292 -0.3076409 0.052967682 -0.3289977
000040 d0 b5 65 bd 0d 4f 29 3d af 23 a1 be a6 04 0a 3e
       -0.056081593 0.041335154 -0.31472537 0.13478336
000050 23 d4 b2 3e bb 51 f1 3d f2 c7 4a 3e af 17 5a be
       0.34927472 0.11783167 0.19802836 -0.21298097
000060 f1 ac 26 be 93 11 25 be 29 59 53 3e 67 0c 99 bd
       -0.1627691 -0.16119985 0.2063948 -0.07473069
000070 bb ac 2e bd 3d c1 ef bc fb 9e 47 be f1 b9 25 be
       -0.042645197 -0.029266948 -0.1949424 -0.16184212
000080 d2 f9 9c bd 74 e2 6d be a2 08 21 be 72 d4 40 be
       -0.07664837 -0.23230916 -0.1572595 -0.18831041
000090 97 7e ea bc 7a a5 87 bd 00 5b de 3c 2c 68 3b be
       -0.028624816 -0.06623359 0.027143002 -0.18301457
0000a0 eb 60 f8 3d 56 b5 a2 be 7f cb db bd 68 12 4e be
       0.12127861 -0.31778973 -0.10732173 -0.20124209
0000b0 ee d6 b1 be 68 9a 49 be a7 b4 bb 3d 51 e1 b7 3d
       -0.3473429 -0.19687808 0.09165316 0.089785226
0000c0 07 da a3 3d 30 49 b0 3d a2 4c 8b be 53 f5 f1 3d
       0.0800057 0.086077094 -0.27206904 0.1181437
0000d0 bf 89 8c be 45 85 f3 bb 80 3c 6f bb 7a 2c 0a be
       -0.27448842 -0.0074316585 -0.0036504567 -0.13493529
0000e0 33 cf 03 be 05 ff a5 be 3f 42 ea 3d 9b 67 5c bd
       -0.12872009 -0.32421127 0.11438417 -0.053809743
0000f0 00 82 ed 3d a6 24 ce be 00 9e 3d 3e e6 03 74 be
       0.11597061 -0.40262336 0.18517303 -0.23829612
000100 c3 f7 0c be 40 de ea 3d 3a 92 9d bd e9 f3 11 be
       -0.13766389 0.11468172 -0.07693906 -0.142532
000110 c4 2b 07 be 56 a5 8d be 42 6a 18 3e a6 cc a9 bc
       -0.13200289 -0.27665204 0.14884284 -0.020727467
000120 4d bc 9d be 3e 61 54 bd b4 f5 60 be 15 2c a3 bd
       -0.30807725 -0.05185055 -0.21968728 -0.07967392
000130 8c 26 d1 bd 09 23 b3 be e7 f9 a1 bd 6d f0 12 3e
       -0.1021243 -0.34987667 -0.07908993 0.14349528
000140 3b 91 47 3e c3 99 d9 bc f7 39 80 be 5e f5 1e bd
       0.19488995 -0.026562577 -0.25044224 -0.03880822
000150 92 70 18 be 55 71 5a 3d 3f b9 0b 3e c4 cc 9e be
       -0.14886692 0.053330738 0.13644885 -0.310156
000160 03 fb 66 3d 94 7d 53 bd 99 2e 21 be 70 43 1c be
       0.056391727 -0.051633433 -0.15740432 -0.152601
000170 38 02 91 bd c4 07 08 be 57 e2 0f 3e b6 11 5a be
       -0.07080501 -0.13284212 0.14051186 -0.21295819
000180 cc 11 c6 3d 0d 89 61 bd ff 85 92 be ed 7e eb 3c
       0.09671363 -0.055062342 -0.28617856 0.028747046
000190 22 82 ba 3d 80 8d 5a 3b f5 36 86 be 40 4b 4e 3c
       0.09106852 0.00333485 -0.26213804 0.012591183
0001a0 4f 6e c2 be 49 9c 43 be 53 48 8f 3b c5 1e f0 3c
       -0.37974784 -0.19102587 0.0043726354 0.029311547
0001b0 f8 49 e9 bd 9e b4 8f 3d 32 69 9c be 3f 28 4e 3d
       -0.113910615 0.07016872 -0.30549008 0.05033135
0001c0 a4 25 b0 be 79 96 62 be aa ac 69 bc de 53 b3 bd
       -0.34403718 -0.22127713 -0.014262358 -0.08756231
0001d0 6c 30 1b bc 2c 4b 25 be 92 b2 59 3e f8 2d e8 3c
       -0.009471994 -0.16141957 0.21259525 0.028342232
0001e0 71 4c 96 bc 13 17 2b 3d 3e 95 ae bd 6a 31 64 3d
       -0.018346997 0.041770052 -0.085245594 0.055711187
0001f0 ad 81 db 3d 62 97 8f bd 92 fe dc 3c 5e c0 01 3e
       0.10718093 -0.07011296 0.026976857 0.12671039

fc2.weight f4 [128, 128]
000000 d0 83 8d 3c bb 2c f3 3c b4 53 df 3b 76 b2 49 3d
       0.017274767 0.029684415 0.006815398 0.04924246
000010 de fc 78 3d 45 0b 7f bc 87 9b 84 3d e0 4b 5d 3c
       0.060788028 -0.015566652 0.06474977 0.01350686
000020 62 17 62 bd 3a 4b ad bd 5d d1 cf bd 9a 91 a8 bd
       -0.05519808 -0.08461614 -0.10147355 -0.08230896
000030 d5 fe 3e bd 60 6d a1 bd 8f 72 4b bd 92 89 7a 3c
       -0.046629746 -0.0788219 -0.0496698 0.015291588
000040 3e 1e 0b bd 18 34 1b bb 56 f0 e6 bc 8e de b4 bd
       -0.033964388 -0.0023682173 -0.028190773 -0.088315114
000050 74 e0 57 3c c4 77 80 bd 12 6d 84 3d 9d 06 03 bd
       0.013176072 -0.062728435 0.06466116 -0.03198873
000060 7e 38 1b bd 06 73 98 bd af 73 83 bc b6 05 eb 3c
       -0.037895672 -0.07443814 -0.016046373 0.028689247
000070 0a 37 62 3d 77 24 ac bd d8 24 37 3c 9a 3c 02 bd
       0.05522827 -0.084053926 0.011178218 -0.031796075
000080 7f c1 18 bd 27 11 7b 3d 25 e3 d4 bd ab 92 d0 bd
       -0.037293907 0.061295655 -0.10394887 -0.10184225
000090 ee b7 4b bd 8e 1b 2f 3d a4 48 96 bd 70 9f e7 3c
       -0.049735956 0.042750888 -0.07338074 0.028274268
0000a0 d8 3d b7 bd fc 5f 90 3c c7 7c 96 bd 96 ce 11 bd
       -0.08947343 0.017623894 -0.07348018 -0.035597406
0000b0 5f 4f b0 3d 45 5f 85 bd 56 06 ea 3c 51 b6 9a bd
       0.08608889 -0.06512312 0.028567474 -0.07554305
0000c0 c3 e6 a0 bd fb 13 9b 3d 20 04 39 3c 4e f7 58 3d
       -0.07856514 0.0757217 0.011292487 0.052970223
0000d0 4c b5 bf bc f4 98 86 bd fe cc f4 bc 5b 60 30 bc
       -0.023401879 -0.06572142 -0.029882904 -0.01076516
0000e0 b2 44 4a 3d c8 17 2d bc e2 08 3b bd 58 53 1d 3c
       0.04938192 -0.010564752 -0.04566277 0.00960239
0000f0 42 31 8c bd 21 1b ff bc bf fb 89 3d a9 d5 89 bd
       -0.06845333 -0.031140866 0.0673747 -0.067302056
000100 35 5c 0b 3c 5c 77 af 3c 2b b0 a3 bd 26 c4 61 bd
       0.008505871 0.02141922 -0.07992586 -0.055118702
000110 4e 46 38 3d e5 0f 3b bd aa 4f 7c bd 62 09 aa 3d
       0.044988923 -0.045669455 -0.06159941 0.08302571
000120 f2 1a 9e bd ee 04 75 3d de 40 58 3d b9 c3 bd 3c
       -0.07719983 0.059819154 0.052796237 0.023164617
000130 1a f2 46 bd 51 6c 43 bd 9c 14 0c 3d ad f4 a9 3c
       -0.04857073 -0.04771072 0.034199342 0.020746553
000140 ce a6 20 3d 84 99 7f bd 98 57 8b 3c 78 84 a8 bd
       0.039221577 -0.062402263 0.017009541 -0.082283914
000150 b6 b4 4a bd 41 8f ce 3c 3b cd 48 3d 2b 48 a8 3d
       -0.049488746 0.025214793 0.049023848 0.0821689
000160 5e 74 ca bd 68 b5 97 bd 66 35 43 3d 25 c8 db bc
       -0.098854765 -0.07407647 0.047658347 -0.026828835
000170 68 f3 61 bc 39 1d 7f 38 6b 54 da bd 83 be 87 3d
       -0.013790943 6.0823953e-05 -0.10660633 0.06628134
000180 46 a3 e9 3c ee 88 a5 bd 30 cb 0f 3c 8d 77 a1 bd
       0.028520238 -0.08082758 0.008776471 -0.078841306
000190 5f c3 a3 3b 9a e0 dd bc 93 2a 30 3c 7d fb 1a 3c
       0.0049976553 -0.027084637 0.010752338 0.009459374
0001a0 b8 74 ff 3c 63 0d 2b bd c0 38 05 3d 33 b9 34 bd
       0.031183586 -0.041760813 0.032524824 -0.044121932
0001b0 e8 f8 58 bd 50 af 84 3c a8 ea ca 3c aa 53 2d 3d
       -0.05297175 0.016196877 0.024770096 0.042316116
0001c0 08 7d 82 bd 4b 3c 1e 3d 1f c8 09 bd a0 2f 84 3c
       -0.06371504 0.03863172 -0.033638116 0.01613599
0001d0 1c 36 e5 bc 5e 5e a8 3d d6 e4 08 3b 8b 8c 3d bd
       -0.027979903 0.08221124 0.002088835 -0.04627661
0001e0 60 f2 6b bd 1e 02 64 bb 3a 5f 0b bd 5d cd 8f 3d
       -0.057604194 -0.00347913 -0.034026362 0.07021592
0001f0 56 fd da 3b 2c 07 89 bc 0f a5 c4 bd 06 fb 74 3d
       0.006683032 -0.016727053 -0.09601795 0.059809707
000200 ce 6d 48 3d 36 46 58 bd 53 e9 91 be 9a 5b 85 bd
       0.048932843 -0.052801333 -0.28498325 -0.06511612
000210 02 28 55 3d 81 ed bb be 21 c0 a1 bd fe 84 84 bc
       0.052040108 -0.3670464 -0.07897974 -0.016176697
000220 a3 a0 6f 3d 4a be 15 bd 8e e8 3a bd cd 32 87 bb
       0.058502804 -0.036558427 -0.045631938 -0.004125929
000230 e9 85 98 ba 19 24 d6 bc 44 32 8c bd 50 34 be bb
       -0.0011636588 -0.02614026 -0.06845525 -0.005804576
000240 f4 2c 8d 3c 34 a4 b2 3d 32 3b 4f 3d a1 a4 8f bd
       0.01723335 0.087227255 0.050593562 -0.07013822
000250 1b e2 b8 3d 35 9a a3 bc 2e 9b 4a 3d 86 37 c6 bc
       0.09027501 -0.019970993 0.049464397 -0.024196398
000260 33 ec 09 3d 3b 6a 9e bd 70 66 96 bd cf 9a 56 bd
       0.033672523 -0.077351056 -0.07343757 -0.05239373
000270 a6 d9 80 3d 21 4c 8f bd ea 2a 81 bd f8 ec c5 bd
       0.06291513 -0.06996942 -0.06307013 -0.09664339
000280 b7 10 ac 3c 7e 49 d6 3d b9 d1 0e bd 69 d0 51 3d
       0.021004064 0.10463236 -0.034867976 0.051224146
000290 59 e6 56 3c 54 23 a3 3c 71 fa b8 3a 4c 9c 4c 3c
       0.013116443 0.019914307 0.0014112723 0.012488436
0002a0 69 cf 1f bd 49 54 63 bd 2a 3b 13 3e 5a 57 80 be
       -0.03901616 -0.055500302 0.14378038 -0.25066644
0002b0 09 79 a3 bb e0 69 68 3c dc db d0 bd 6e 85 4b be
       -0.0049887937 0.014185399 -0.10198185 -0.19875118
0002c0 94 4d 82 3b 1f 5f df bb b2 c0 1c bd 71 6c ac bc
       0.003976533 -0.0068167592 -0.038269706 -0.021047803
0002d0 3a ba 64 3d c9 51 0f 3e 24 50 f1 3c fc c6 1b bd
       0.055841662 0.13996042 0.02945716 -0.038031563
0002e0 bc 8c bc 3d 9c f6 31 bc f7 03 9b bc f9 f4 8e 3d
       0.092065305 -0.010862019 -0.018922789 0.069803186
0002f0 7a 6f 8a 3d af d8 dd bb 0e 8c 8b bd e0 64 ad bb
       0.06759544 -0.0067702155 -0.06813823 -0.0052915663
000300 a9 0e 84 3d 10 87 80 3c d0 78 80 ba c3 d1 6f 3d
       0.06448109 0.015689403 -0.000980163 0.058549654
000310 8a 20 40 3d d7 e7 bd 3d 82 0a db 3d 85 fa 8c 3e
       0.04690603 0.092727356 0.106953636 0.2753488
000320 e0 c6 79 3c e5 79 c6 3c a9 8c 34 3b 2a fb 79 3d
       0.015245169 0.024228046 0.002754966 0.061030544
000330 a7 a4 3e bc 20 2e b0 be 3c e2 6f 3c 7b bd 73 3c
       -0.011635936 -0.3441019 0.014641341 0.014876719
000340 5e ee b3 3c d3 cc 03 3e c0 31 5f 3b 65 f2 e4 bc
       0.021964248 0.12871103 0.0034056753 -0.027947614
000350 10 53 8c 3c c5 00 75 bd c0 5a 0e 3d 2c c3 bb bc
       0.017129451 -0.059815187 0.034754515 -0.022920214
000360 f4 d7 91 3c a4 d9 45 bd a2 69 93 3d 67 e1 b8 bd
       0.01780317 -0.04830326 0.07197882 -0.09027367
000370 d2 60 2d bd e7 92 3f be c9 42 76 3d 41 eb 89 bd
       -0.042328663 -0.18708383 0.060122285 -0.06734324
000380 4f 6e 91 be 1b e5 e0 bc 5d da 96 3c 6a c7 0b be
       -0.2840447 -0.027452996 0.01841467 -0.13650289
000390 65 41 04 bc 40 64 95 3c ce 02 4b be 47 5c 29 3d
       -0.008072232 0.01823628 -0.19825289 0.04134777
0003a0 8c d7 4c bc 46 58 12 3d 32 37 10 3e ce 7c 5e 3b
       -0.012502562 0.035728715 0.14083555 0.00339489
0003b0 d5 e4 cc bd 0c dc 99 3e 50 3a 20 bd 00 26 d8 3c
       -0.10004584 0.30050695 -0.03911811 0.026385307
0003c0 85 39 41 3d b2 15 42 bc 0c 34 b1 bd 13 3b b4 bd
       0.047173996 -0.011845993 -0.08652505 -0.0880033
0003d0 c8 61 2e bc ec b8 a6 bd 4d 2b c2 bd 19 86 d6 3a
       -0.01064343 -0.0814074 -0.09480915 0.0016366869
0003e0 44 cc 31 3d a2 c7 72 3c 74 ed ad bc 02 61 7c be
       0.043407694 0.014818104 -0.02123139 -0.2464638
0003f0 5a 1c 10 bd d4 09 d0 bc 27 00 ba be b1 cf 8c 3d
       -0.03518329 -0.025395311 -0.3632824 0.068755515

fc2.bias f4 [128]
000000 b6 da 8d bd ed a4 1e bd df 88 1b bd 37 b3 51 3d
       -0.069264814 -0.038731504 -0.037972327 0.051196303
000010 17 4e e4 ba e8 fa 61 bd 2a 1b d7 bc d0 44 c4 bc
       -0.0017418292 -0.055170923 -0.02625807 -0.023958594
000020 9b 07 88 bd 45 ec 7c bd f6 59 5b bc 96 ea e9 bc
       -0.06642076 -0.06174876 -0.013388148 -0.028554242
000030 77 c6 d8 bd bf 48 70 bd 6c d1 5f bd ef 18 99 bd
       -0.10584729 -0.058663126 -0.05464308 -0.07475459
000040 72 55 1b bc aa 94 24 bb 70 56 cf bd 5b a5 82 bd
       -0.009480821 -0.0025113025 -0.101239085 -0.06379195
000050 f8 2b 8d bd 17 3d 35 bd 72 15 1e bd 2c ce a2 bd
       -0.06893152 -0.044247713 -0.03859467 -0.079494804
000060 4a 23 ad bd 8d a5 0d bd 4e 8a 9c bd a4 43 ee ba
       -0.084539965 -0.03458171 -0.07643567 -0.0018178117
000070 64 e7 64 bd 31 36 9c bb 07 0c c6 bb 9f c1 c4 bd
       -0.055884734 -0.0047672023 -0.0060439142 -0.09607243
000080 fd 19 54 bd a0 7d 1c bd 49 d3 d4 bd bf ac 32 bd
       -0.051782597 -0.038205743 -0.10391862 -0.043621775
000090 fb df a7 3d 99 f9 5d bd 1b 26 69 bb 59 4d c5 bd
       0.08197018 -0.054193113 -0.003557569 -0.096338935
0000a0 c5 27 13 bd 40 33 f2 bd 4a ee 1d 3a aa b3 f1 bc
       -0.0359266 -0.118261814 0.00060245825 -0.029504616
0000b0 8d 34 4c bd 25 f0 5c bd d5 42 57 bd 22 20 98 bd
       -0.049854804 -0.053939957 -0.05255397 -0.07428004
0000c0 24 53 f6 bc 00 28 85 bb c8 49 d8 bb c3 6a a7 bd
       -0.030068941 -0.0040636063 -0.0066005923 -0.0817466
0000d0 7b 9f c5 bd 95 85 9c bd 7c 51 6e bd 7a e4 f9 bc
       -0.09649559 -0.07642666 -0.05818318 -0.030504454
0000e0 68 60 9e bd 6e 5e 1d bd cf 34 84 3b 25 ff c4 3d
       -0.07733232 -0.038420133 0.0040346156 0.096189775
0000f0 5e 7d 07 bc 41 47 b1 bc 33 0c 56 bd f9 91 86 bc
       -0.008269636 -0.021640422 -0.052257728 -0.016427027
000100 2c f4 0d bd 28 85 2d bd 78 7f 91 bc 5d 47 82 bd
       -0.03465669 -0.042363316 -0.017760977 -0.06361268
000110 a1 4a 03 bd 49 f7 e3 bc 86 fb f1 bc b8 a6 00 bd
       -0.032053594 -0.027827876 -0.029538881 -0.031408995
000120 3d 50 83 bd 96 ab 17 be 4b f8 10 bd 4b 0a 3c bd
       -0.064117886 -0.14811549 -0.03539304 -0.045908254
000130 9f 5b 04 bd 26 27 17 bd 3b de 2c bd 20 70 9d bb
       -0.03231394 -0.03690257 -0.042204123 -0.004804626
000140 82 b6 4b bb 4d 92 7c bd f9 c7 a4 bd f0 4a a3 bd
       -0.0031084125 -0.06166296 -0.08045954 -0.079732776
000150 11 42 10 bd bb c6 d1 3b 56 b3 46 bd ad 93 4f bd
       -0.035219256 0.0064018643 -0.04851087 -0.050677944
000160 3b 23 25 bd 66 bb 20 bd 45 06 1f bd b0 76 65 bc
       -0.0403168 -0.039241217 -0.03882434 -0.014005348
000170 e8 6a 5c bd bb 45 88 bd ff 89 c9 bc 0d 0c a5 bd
       -0.05381289 -0.06653925 -0.024601934 -0.08058939
000180 7d 73 66 bd 3a db 53 bc 03 ae d4 bb e5 96 90 bc
       -0.056262482 -0.012930686 -0.0064904704 -0.017650077
000190 a9 e3 34 bc 54 dd f3 bc 0b f2 f5 bd 0b e7 32 bd
       -0.011040607 -0.029768623 -0.12009057 -0.04367737
0001a0 d0 29 1c bd 64 56 76 3d 18 c7 90 bd f0 49 2d bc
       -0.038125813 0.060140982 -0.07069224 -0.01057671
0001b0 1f 22 09 bd 35 d5 b5 bd 22 5d b1 bd 87 01 a9 bb
       -0.033479806 -0.08878557 -0.08660342 -0.005157653
0001c0 36 5b 00 bd c5 1c d8 bc cc c6 9e 3d 0e 59 31 bd
       -0.031336986 -0.026380906 0.07752761 -0.04329782
0001d0 3f e8 ee 3d 12 bc bc bd 74 b6 c1 ba 20 44 83 3b
       0.11665391 -0.09215559 -0.0014779107 0.004005924
0001e0 a4 b1 8c 3c 3e 71 a5 bd 8e db e3 bc 1a c1 a1 bd
       0.01717455 -0.0807824 -0.027814653 -0.07898159
0001f0 61 bd 65 bd 9c 59 11 bd fa 14 dd bc 9b 15 15 bd
       -0.05608881 -0.03548585 -0.026987541 -0.036397558

fc3.weight f4 [6, 128]
000000 42 bc 6c 3d 76 84 d9 3c 67 67 8d 3b d4 93 1f 3e
       0.057796724 0.02655242 0.004315305 0.15583736
000010 c7 f2 03 bc 5b 41 05 3c 9a f4 2d bd 5f ee 3b 3e
       -0.008053488 0.008133258 -0.0424696 0.1835265
000020 6f 99 22 3c ef 37 0d bd 1d dd 00 3d 5d 2c 5c 3d
       0.009924277 -0.03447717 0.03146087 0.053753246
000030 57 fb 0d bd 9c ce 85 3d 2d b6 9c 3d e4 22 3b 3d
       -0.034663524 0.06533548 0.07651935 0.04568757
000040 fe 04 7d 3d ff e1 f6 3d 4b fa 13 3d e1 9a 5c 3c
       0.06177234 0.12054824 0.03612737 0.01346466
000050 d0 25 c9 3b 88 64 11 3b a0 fa 03 3d 81 75 8d 3d
       0.006138541 0.0022185165 0.032221437 0.06907178
000060 38 57 2d 3c da a4 c6 bc 70 55 91 3c e8 ce bc 3a
       0.010579877 -0.02424853 0.017740935 0.0014404925
000070 d8 fb 79 3d 3e fb 9a 3d b2 69 b0 bc fc 91 8a 3c
       0.061031193 0.07567452 -0.021534774 0.016915314
000080 50 d3 40 3c c5 b3 e9 3c 53 34 63 bc e0 f3 0e bc
       0.011769131 0.028528104 -0.013867456 -0.0087251365
000090 b3 f6 42 3e f2 12 4a 3c 54 b0 f4 3d 46 f4 15 bc
       0.19039421 0.0123336185 0.119476944 -0.009152478
0000a0 f3 4f f9 bc e7 4f ae 3d c8 f1 33 3c 8c 76 9b 3e
       -0.03043363 0.08511334 0.010982938 0.30363882
0000b0 35 2d 22 3d e0 c9 b4 3b 37 74 5c 3e d2 c2 9b bd
       0.039593894 0.0055172294 0.21528707 -0.076055184
0000c0 b0 0f 29 3c a0 ba 04 bd e2 f4 32 bd cf 38 cf 3d
       0.010318682 -0.032404542 -0.04369057 0.10118257
0000d0 ff 90 24 bd 17 e5 86 ba 4d 95 b6 3b 26 67 fd 3c
       -0.04017734 -0.0010291663 0.0055719973 0.030932974
0000e0 12 6b b5 bc b0 19 5d 3c ff ed 41 bc 11 b5 26 bd
       -0.022145782 0.013494894 -0.011836528 -0.040700022
0000f0 93 21 28 3d 24 d2 54 3c d9 52 42 bd 61 38 a3 3d
       0.041047644 0.012989555 -0.04744229 0.07969738
000100 67 bb aa bc 8d 0c a7 3c f5 d3 0d bd f7 fb ce bc
       -0.020841314 0.020391727 -0.034625966 -0.02526663
000110 f0 1a 84 3d 33 86 0e be 0a 68 da bc bd b7 91 bc
       0.064504504 -0.1391838 -0.026660938 -0.017787809
000120 11 44 9a 3c 7a bf 02 3e 1d e6 c3 3c 89 c2 08 bd
       0.018831285 0.12768355 0.023913438 -0.03338865
000130 35 2b 38 3d 82 e1 a7 bb 6a 7d 79 3d 7c f9 c3 bb
       0.04496308 -0.005123318 0.06091062 -0.0059806686
000140 7e 74 56 3d ae 9b b2 3d 89 35 81 3d 00 06 1a bb
       0.05235719 0.087211 0.06309039 -0.0023502111
000150 89 34 8d 3d ef a5 bc 3c 02 89 73 bd ff 0c bc 3c
       0.06894786 0.023028342 -0.059456833 0.022955416
000160 64 25 10 bd 60 f0 5a bd ac da 06 3d 30 e5 63 bd
       -0.03519191 -0.053451896 0.032923386 -0.055638492
000170 f4 16 5e 3c 7a 84 30 38 48 87 89 bc 08 33 f7 3c
       0.013555277 4.208505e-05 -0.01678814 0.0301757
000180 f0 40 bb 3c 46 4e 4e bd 1a b6 29 3c 0e 10 cb bc
       0.022858113 -0.050367616 0.010358358 -0.024787929
000190 ae 62 af bb f6 9a 6d 3c c0 ec 25 3d c6 19 97 bd
       -0.0053523397 0.014502278 0.040508986 -0.07377963
0001a0 ba 6e 4b bd e1 87 c0 bd b3 b9 be 3b 90 0e 06 bd
       -0.049666144 -0.09400917 0.005820477 -0.03272873
0001b0 44 15 82 3d 0a 72 0b bd 7d ae a1 3d be 3c 98 3b
       0.06351712 -0.034044303 0.07894609 0.004645913
0001c0 29 14 8e bd f5 b2 a4 3c 91 7a 1e 3e 7f f2 9d 3c
       -0.06937439 0.020104865 0.15476443 0.01928067
0001d0 59 46 ab bd 38 b2 71 bd 70 a5 2c bc 94 5c 99 bb
       -0.08363027 -0.059007853 -0.01053749 -0.0046802256
0001e0 72 88 e5 3d 04 37 8f 3c 9e cd 05 bd c4 ce d2 bc
       0.112076655 0.017482288 -0.032666795 -0.02573336
0001f0 26 8e b5 bc 1e 02 5d bc 1a 0c 08 3d f7 91 18 bd
       -0.022162508 -0.013489274 0.033214666 -0.037248578
000200 64 25 3a bb cd f2 5e 3c 01 fd 1a bd e8 57 18 3e
       -0.0028403634 0.013607693 -0.03783894 0.14877284
000210 46 2d f3 ba e7 c7 1a 3d 65 53 50 3b c3 5e 6a 3e
       -0.0018552921 0.037788298 0.0031787988 0.22887711
000220 4b 23 fa bc 92 05 98 bd bf 6b 86 3c 21 69 c7 3d
       -0.030534407 -0.074229375 0.0164088 0.097368486
000230 f6 aa 27 3c 70 19 a9 3c e5 2a 89 3d e4 41 67 3d
       0.010233631 0.020642012 0.066976346 0.056459323
000240 6e 10 ec 3d bf 5b 0f 3d 30 b8 00 3d c7 bb 4f 3d
       0.11526571 0.034999605 0.031425655 0.050716188
000250 80 cb 05 3b 10 d4 c2 3b 71 94 9d bd 80 22 69 bc
       0.0020415485 0.00594569 -0.076943286 -0.014229417
000260 a6 39 13 bd e5 32 01 3d 81 13 e8 3c 54 4a 38 3d
       -0.03594365 0.031542677 0.028329613 0.04499276
000270 8d ff 5b bd 1b a4 b8 3c 13 59 d1 3c d2 df 9a bc
       -0.05371051 0.02253919 0.02555517 -0.018905554
000280 bc 77 a3 3d 55 ec 25 3c fa b8 ba bc 5d f1 31 bd
       0.07981822 0.010127147 -0.022793282 -0.043443073
000290 f2 31 38 3e 95 f3 49 3d 89 e1 48 3d 0c 97 b1 3c
       0.17987803 0.049304564 0.049043212 0.02167847
0002a0 0d 73 7d bd 86 e7 32 3d 03 80 c9 3d 39 b4 7b 3e
       -0.0618773 0.04367783 0.098388694 0.24580468
0002b0 56 f5 89 bb f9 bb a8 3d 18 6a 0a 3e 5b 7a ff bc
       -0.0042101545 0.08238978 0.13517034 -0.031186273
0002c0 f1 ac 1f 3a dc 4d a0 3d b8 0c 2c 3d d5 f7 a6 bd
       0.0006091139 0.078273505 0.042004317 -0.08152739
0002d0 e1 5b 0d 3c 10 a8 2f 3c 69 1f 58 3c 78 79 a9 3d
       0.008627863 0.010721222 0.0131910825 0.082751215
0002e0 82 1d 4a 3d ae 03 b9 bc 7e 2c bd 3c e0 df 6b 3d
       0.049344547 -0.022584762 0.023092505 0.05758655
0002f0 8b 88 ce 3c c0 c1 94 bb 63 a2 58 3d 9f 5c e4 bb
       0.025211593 -0.0045396984 0.05288924 -0.006969049
000300 71 f6 83 3c f9 03 27 3c 58 73 64 bb f2 dd 76 bd
       0.016108723 0.010193818 -0.003485879 -0.060270257
000310 25 6f f7 3a 2c 60 f8 3d 5e 3b 5f 3d 0d 16 c3 3a
       0.0018877728 0.12127718 0.054499976 0.0014883891
000320 fd 8c 0a 3d 30 fa 84 bc 07 59 59 3a 70 30 4e bd
       0.033825863 -0.01623258 0.0008291159 -0.050339162
000330 4d f2 96 bc c9 4d a2 bb cf 3e e7 3c b6 02 ab ba
       -0.018426085 -0.0049531204 0.028228192 -0.0013047073
000340 8f 69 e6 3d 83 0a 92 3d 68 f3 0f bc 26 02 44 3d
       0.112506025 0.07130911 -0.00878606 0.04785361
000350 35 f6 90 bd 20 e1 08 3b 3d 2b 6b bd 84 5f 25 3d
       -0.0707821 0.0020886138 -0.057414282 0.040374294
000360 da 61 2d bd 93 f0 3a 3b 9b 8a 88 3d 43 74 da 3c
       -0.042329647 0.002852474 0.06667062 0.026666766
000370 99 99 20 3d f9 9c df 3a b6 ec 1f bd d3 54 e3 3b
       0.039208982 0.0017060331 -0.039044105 0.006937602
000380 e1 5c d1 3c 3d 6f 97 3d 6d 68 a8 bb fa f6 31 3c
       0.025556983 0.07394264 -0.0051394016 0.010862106
000390 78 d7 94 3c 92 e0 dd 3c 67 bf 3a 3c 7a 75 03 bd
       0.01816915 0.027084623 0.011398173 -0.032094456
0003a0 89 79 8f bd 6a 35 b2 bd 50 69 f1 bc 69 09 e6 3c
       -0.07005603 -0.08701594 -0.029469162 0.028080659
0003b0 2e 49 79 3a 87 1f 1c 3d fc dd e5 3c 4e 9b 2b 3c
       0.0009509501 0.038116004 0.028059952 0.010474039
0003c0 fd f4 6d bd 51 6b 92 3d 7f 92 31 3e cf fd 29 3c
       -0.058094967 0.07149375 0.1734104 0.010375454
0003d0 d9 24 c4 bd 7b 3f ec 3b 57 8c cc 3c 07 ab ca bc
       -0.09577341 0.007209716 0.024969263 -0.024739755
0003e0 c9 a8 e9 3d b3 8b 36 bd 3c fc 5b 3a 48 df 84 bc
       0.11409146 -0.04456682 0.0008391773 -0.01621975
0003f0 82 d1 1d bd 79 5a 8c 3d b9 29 56 3d c8 be 34 bd
       -0.03852988 0.06853194 0.052285884 -0.044127256

fc3.bias f4 [6]
000000 3b c6 87 be 13 4d 87 be 9e ca 86 be 28 3c 87 be
       -0.26518425 -0.2642599 -0.2632646 -0.26413083
000010 4c 2e 87 be 95 a7 86 be
       -0.2640251 -0.2629973
