ai/models/dqn_enhanced_ep200.pth (torch, 78454 bytes, 6 tensors)

fc1.weight f4 [128, 12]
000000 c0 a0 5f 3e 02 26 86 be 64 0f 8a be fe fc 54 3e
       0.21838665 -0.26200873 -0.26964867 0.20799634
000010 ab 26 5c be ec 6c b7 bd 78 18 e7 bd 2a a8 d9 bd
       -0.21499126 -0.08956322 -0.11283964 -0.10627778
000020 c0 a0 77 3c ea 23 f4 bd c0 35 79 bc bd 99 24 be
       0.015114009 -0.119209126 -0.015210569 -0.16074272
000030 7a 9c 81 3d 23 e6 76 3c 44 13 07 bc ea 08 c0 3d
       0.06328674 0.015069517 -0.008244339 0.093767
000040 f9 45 49 be c7 ee 58 3d e8 58 e8 bc 01 8d a3 bd
       -0.19655599 0.05296209 -0.028362706 -0.07985879
000050 a0 5b 95 be cd a8 27 be 0b 7b 6b 3e 25 c3 84 be
       -0.29171467 -0.16372986 0.22996156 -0.25930133
000060 c9 db 2b 3e b2 41 6c be e5 32 08 bf 5e dd e4 be
       0.1678306 -0.23071936 -0.5320266 -0.4470014
000070 92 2a 41 be 21 70 5a be e0 87 fe be 15 fd 40 bb
       -0.18863896 -0.21331836 -0.4971304 -0.0029447724
000080 30 b3 4b bf 3d be 2f 3b 8c a5 87 be aa 73 50 3e
       -0.79570293 0.0026816272 -0.2649349 0.20356622
000090 42 88 ca 3e 68 3c 23 be 48 02 8f be 64 0d 96 be
       0.3955708 -0.15941012 -0.27931428 -0.2930709
0000a0 a5 a2 45 be dd 08 18 bd f7 2a 60 be f9 1c 17 3d
       -0.19300325 -0.037117828 -0.2189139 0.036892865
0000b0 a7 55 77 bd 18 27 4e 3e 24 6c 2a 3e bb e2 8a 3e
       -0.06038442 0.201321 0.16642815 0.27126107
0000c0 07 9f 3c be 06 e6 a8 3d a0 71 62 3e 32 ec a2 be
       -0.18420039 0.082469985 0.22113657 -0.31820828
0000d0 94 2a 3d be c4 70 8f be bd 2d 1b be 10 05 04 bd
       -0.18473274 -0.2801572 -0.15154167 -0.03223139
0000e0 69 ed 92 be 02 24 65 3e ec 43 69 be e5 b2 e4 3d
       -0.28696755 0.22377017 -0.22779816 0.11166934
0000f0 c3 a0 98 be cc e3 0f 3e 3c ab 34 be 15 71 28 be
       -0.2981015 0.14051741 -0.17643446 -0.16449387
000100 89 40 3e bf 1a 2e 0b 3f 48 8d 81 be 25 71 0b 3e
       -0.7431722 0.5436722 -0.25303102 0.1361738
000110 4f e0 d3 be a4 7f ef 3d d0 82 70 be 74 4a 9f be
       -0.4138207 0.116942674 -0.23487401 -0.3111149
000120 f3 93 2c be 76 7a 40 3e 19 a7 49 3d 87 47 1d be
       -0.16853313 0.18796715 0.049231622 -0.15359317
000130 f8 16 a5 3e 8b ce b3 be 60 d0 c1 be 47 04 d7 3c
       0.32244086 -0.35118517 -0.3785429 0.026247157
000140 66 ea 8f be 0c 44 86 3e 47 cf 7e be 27 3f 68 be
       -0.2810852 0.2622379 -0.24883758 -0.2268034
000150 85 bb 22 3e 32 09 ab 3c a8 7e 54 bc 4c 78 35 bd
       0.15891846 0.020878408 -0.01296965 -0.044304177
000160 0a ce 23 bd 7c 48 a9 bd 29 b1 5e be f3 82 94 3d
       -0.039991416 -0.082657784 -0.21747269 0.07251539
000170 30 68 0a bf 76 1a 67 3e bb a4 55 be 4e 92 5b bd
       -0.5406523 0.22568688 -0.20863621 -0.053606324
000180 a3 df 96 be 3b e4 73 bd 96 2e 81 3d 86 55 34 bc
       -0.29467496 -0.05954383 0.06307714 -0.0110067185
000190 02 c3 45 3e 50 0c ac be c4 38 cc bd 12 e0 50 bb
       0.19312671 -0.33603144 -0.09971765 -0.0031871838
0001a0 30 6a 23 3e 08 4a 1f be 89 f9 1a bd a4 af 80 3e
       0.15958476 -0.15555584 -0.03783563 0.25134003
0001b0 9e e2 d7 be 82 9a d8 3e 3c 53 d9 3d 1d fb 5f be
       -0.42165083 0.4230538 0.10611579 -0.21873136
0001c0 88 0e af 3e dc a6 dc be 99 30 75 3e 11 e7 02 be
       0.34190774 -0.43096054 0.2394432 -0.12783457
0001d0 c1 87 27 be 4c 4a 6d be 30 e2 93 be d8 b6 d3 bd
       -0.1636038 -0.23172873 -0.28883505 -0.10337609
0001e0 63 9c 20 bd d4 99 f0 3b 91 10 74 3e 90 b0 cf be
       -0.039211642 0.0073425565 0.23834445 -0.40564394
0001f0 03 ca ce bd cc ee 36 be 36 55 fd 3c b7 84 0c be
       -0.100971244 -0.17864531 0.03092442 -0.13722502
000200 95 1f db bc e7 b8 6a 3d a6 17 e8 3d 0a 9b 99 bd
       -0.026748458 0.057305243 0.113326356 -0.075002745
000210 f0 67 bf be fc bf 0a 3d 03 0a b4 3d 09 a2 41 3d
       -0.37383986 0.033874497 0.08790972 0.04727367
000220 20 21 d5 3d eb cd 10 be bf da 41 3e 28 9b 0d bc
       0.10406709 -0.14141051 0.18931101 -0.008642949
000230 85 f4 92 3e d0 82 ee 3d bb 1b df 3d 4c b2 18 3d
       0.2870218 0.11646044 0.10893961 0.037279412
000240 56 8d c6 be 0a f8 83 bc f7 d9 09 bc d2 a6 7c be
       -0.38779706 -0.016109485 -0.008413783 -0.24673012
000250 51 ed 8d 3e 15 20 3a 3e 7e e6 46 bd 1f 43 68 3c
       0.2772012 0.18176301 -0.04855966 0.014176159
000260 9f f3 a7 be c8 e9 ad 3d e0 43 9a bd d8 d4 6a bd
       -0.32803056 0.08491856 -0.075324774 -0.05733189
000270 6b a9 e9 3c 3c 01 39 be 72 c1 5f be e6 2a 8d bd
       0.028523168 -0.18066877 -0.21851137 -0.06892948
000280 d4 b6 87 be f8 24 91 be b0 c2 be bd 40 8e 47 be
       -0.26506674 -0.28348517 -0.093144774 -0.19487858
000290 00 06 82 bf ca 65 5c 3e 78 26 9c 3e 3a 5b d7 be
       -1.0158081 0.21523204 0.304981 -0.42061788
0002a0 40 cd ba 3d 20 06 54 3c 54 39 55 bd e5 2f 40 be
       0.091211796 0.012940913 -0.052056625 -0.1876827
0002b0 ba ee 8a 3e 14 a8 ab bd d0 61 9c 3d 28 bf 53 3d
       0.2713526 -0.08381668 0.07635844 0.051695973
0002c0 aa 1a 78 be 80 72 1d bb a6 38 89 be 82 02 e4 bd
       -0.24228922 -0.0024024546 -0.26801032 -0.11133291
0002d0 f7 11 83 bd 3f e1 8a be 4f c0 c9 3e 85 26 03 3e
       -0.06399911 -0.27124974 0.39404532 0.12807663
0002e0 04 dd 02 bf 39 5c 13 bd ac 65 26 3e e2 5c 9a be
       -0.51118493 -0.035976622 0.16249722 -0.3014899
0002f0 80 e9 ea be 5e 6a 3a bd 35 51 9d 3d ea b1 b8 be
       -0.4588127 -0.045511596 0.07681505 -0.36073238
000300 d2 77 04 3e bd 31 8c be 7e d4 2f be ce 1c 2f be
       0.12936333 -0.27381697 -0.17170903 -0.17100832
000310 50 18 2e 3d 75 7b 42 be c0 98 4c 3c ca 21 06 be
       0.042503655 -0.18992408 0.01248759 -0.13098827
000320 84 86 31 be 84 a6 8c 3d 4a 77 f2 bd 53 91 2a be
       -0.1733647 0.06867698 -0.11839159 -0.16657
000330 91 cb 81 3e d8 cf 51 be 9c 55 3c be cd 72 88 bf
       0.2535062 -0.20489442 -0.18392032 -1.0660034
000340 ee 92 a2 be 1f 06 ab 3d 48 b1 07 be 9d aa 32 3d
       -0.31752723 0.08350777 -0.13251221 0.04361974
000350 83 df 4c bf 77 31 9e 3e 37 43 1a bd ed 60 b3 3e
       -0.8002855 0.30897114 -0.037661757 0.35034886
000360 82 eb b6 3b 73 d6 99 be a3 ad 63 3e 3a b6 89 3d
       0.005582274 -0.30046424 0.22234206 0.0672421
000370 e7 e6 b8 3b 54 5e 4f 3e cd 34 ab 3c 32 54 0a bd
       0.00564276 0.20250827 0.0208992 -0.0337717
000380 b2 eb ab bd 36 28 05 3e 54 e9 2c 3e ae 98 b6 bd
       -0.08394565 0.1300362 0.16885883 -0.0891584
000390 b0 2a e0 3c 24 49 fb bd fe 92 26 be 20 87 fb 3c
       0.027364105 -0.1226981 -0.1626701 0.030704081
0003a0 52 9d 5c be 0e 2e 41 3e 80 6e 0e 3b d0 ad e0 bc
       -0.21544388 0.18865225 0.0021733344 -0.02742663
0003b0 48 1c 63 be 04 15 8b be 66 cd 1f be 60 bd a9 3c
       -0.22178757 -0.2716447 -0.15605697 0.020720184
0003c0 40 8d a1 3c 40 47 0c 3d 20 cc 9a 3d 98 40 6c 3e
       0.019720674 0.034247637 0.07558465 0.23071516
0003d0 e4 2b 64 bd 38 ab f8 bd 07 dc 1a be 4e dc 25 3e
       -0.05570592 -0.121420324 -0.15122996 0.16197321
0003e0 1b 78 79 be 80 ef 84 3b ac 75 c5 3d 44 9a 2f bd
       -0.24362223 0.004056871 0.09641585 -0.04287173
0003f0 5f 59 27 bf 38 19 b6 be 94 3c c9 3d 5b 2e 4c be
       -0.65370744 -0.35566115 0.098260075 -0.19939558

fc1.bias f4 [128]
000000 d8 c6 82 bd 47 5d d6 bd 8e 95 28 3e c7 7e 9c be
       -0.06385583 -0.1046701 0.164633 -0.30565473
000010 8c 58 b5 bd 08 29 82 be 60 a8 47 be ec 1b da bd
       -0.088547796 -0.2542193 -0.19497824 -0.10649857
000020 8a 57 31 3d b1 79 82 3d 84 de 0d be 2e 70 b1 be
       0.043296374 0.06370867 -0.13854414 -0.346559
000030 87 27 88 be 18 7b 9e bd 40 fa 35 be 3f 7f a9 3e
       -0.26592657 -0.07738322 -0.17771244 0.33104894
000040 94 60 62 bd 66 50 71 bc fd f3 13 be 18 cb 49 be
       -0.055267885 -0.014728641 -0.14448543 -0.1970638
000050 ef 3c 8e be b1 16 a3 3d 1d 10 6f be 1e 28 64 3d
       -0.27780864 0.079633124 -0.2334599 0.05570232
000060 54 f1 9c 3d d3 3d 51 be 71 22 b6 be bf 5d 63 bd
       0.07663217 -0.2043374 -0.35573152 -0.055509325
000070 2f 4b 93 3d 58 19 4e bd 68 cc 85 be a6 7b 8a be
       0.071920745 -0.05031714 -0.26132512 -0.2704746
000080 85 6f 85 be 72 b9 38 be 26 d6 8b bd b9 de 68 3d
       -0.26061645 -0.18039492 -0.06827955 0.05685303
000090 71 db 77 3d 6c 3b 50 be d4 b5 7d be b0 52 1d 3e
       0.06051201 -0.20335168 -0.24776393 0.15363574
0000a0 59 a2 74 be d7 43 c3 3d 72 f1 84 be 2e e4 a0 be
       -0.23890056 0.09534424 -0.25965458 -0.31424087
0000b0 ce 32 58 be 67 5a a1 be 59 57 e3 bd 03 19 a2 be
       -0.2111313 -0.31514284 -0.111006446 -0.31659707
0000c0 d3 44 37 3e 28 84 51 be ef 32 17 be 66 6b 35 be
       0.17897348 -0.2046057 -0.14765523 -0.1771675
0000d0 ab 85 66 be 81 4e bf bd a2 a9 81 bd ae 5a 1c bd
       -0.22511928 -0.09341145 -0.06331183 -0.038172416
0000e0 f6 dc 83 3e 35 d4 9f bd c2 c1 83 be d6 0d 0a 3e
       0.25754517 -0.07804147 -0.25733763 0.1348184
0000f0 2f 67 8f 3c 7e af a7 3d d6 d2 f7 bd a5 44 9c be
       0.017505256 0.08187769 -0.12100761 -0.30521122
000100 d8 91 77 be 91 61 2a be c1 47 d7 bd 74 be 3a be
       -0.24176729 -0.16638781 -0.10511733 -0.18236715
000110 5d fd 78 be 75 6d 6a be b8 19 9d be c0 7e 20 3d
       -0.243154 -0.22893317 -0.30683684 0.03918338
000120 c0 c6 18 bc 2e c7 1e be e5 38 93 be 88 93 2f 3e
       -0.009324729 -0.15505669 -0.28754345 0.17146122
000130 e2 a9 26 be 5f 38 97 bd de 1d 8c bc 6b 1d 92 3e
       -0.16275743 -0.07383799 -0.017104086 0.2853807
000140 1a 6f 33 be c3 f1 77 be 20 b4 25 be 87 53 93 be
       -0.1752285 -0.24213319 -0.16181993 -0.28774664
000150 58 c2 c8 bd a6 b8 d4 3b aa 26 49 3e 87 9b 68 be
       -0.09802693 0.0064917384 0.19643655 -0.22715579
000160 95 75 a3 bd b3 80 9c be 1d 66 16 3d 24 d5 5c 3e
       -0.07981411 -0.3056694 0.036718477 0.21565682
000170 28 f8 48 3d e4 c3 4a be dc 0d 33 be f4 7f f6 bd
       0.049064785 -0.19801289 -0.17485756 -0.12036124
000180 f0 bf 8b be 8b bf 23 be 9f 88 32 3d 83 f7 c1 bd
       -0.27294874 -0.15991037 0.043587323 -0.09471037
000190 17 4a 8d be 59 b4 06 be 3a b8 8b 3d 92 9c 4c bc
       -0.2759559 -0.13154735 0.06822248 -0.012488501
0001a0 c1 20 ae 3d 00 71 2e 3d 86 d1 06 3c d8 39 46 3d
       0.08502341 0.042588234 0.008228665 0.048395008
0001b0 a5 f7 b9 3d 34 2a 2a bd f9 a4 ad 3c a4 aa 07 3e
       0.090804376 -0.041544154 0.02119683 0.13248688
0001c0 be 33 f8 bd 7c 4a 0f 3e 56 18 cb 3d ff cf 2d be
       -0.12119244 0.13993257 0.09916751 -0.16973875
0001d0 0c 5f fe bd 35 71 6a be a8 be a1 bd 02 72 a1 be
       -0.124204725 -0.22894748 -0.07897693 -0.31532294
0001e0 25 bb 97 be 0d 9c 74 3a 58 b6 98 3d 7c ae 14 be
       -0.29634967 0.00093311147 0.07456654 -0.14519686
0001f0 c0 e7 91 3c 16 5c 6d 3e fa b6 a5 bc 8f 69 8d be
       0.017810702 0.23179659 -0.020228852 -0.27619597

fc2.weight f4 [128, 128]
000000 a2 3d 33 3d 2c b8 6b 3d 13 ad 0a b9 b2 63 52 bd
       0.04375995 0.057548687 -0.00013225181 -0.051364608
000010 79 b7 9c bd 96 76 c2 bd e3 be 89 bd a7 17 11 3d
       -0.07652182 -0.09495275 -0.06725862 0.035422947
000020 37 8c 1e bd 7e fb e0 3c b4 b5 4f bd 6f 57 bf 3a
       -0.038707938 0.02746367 -0.050710395 0.0014598201
000030 8c 97 3f 3d cb eb 6c bd 11 f4 b0 3d 2d d1 09 3d
       0.046775386 -0.057842057 0.08640302 0.03364675
000040 8d c6 95 bd d1 b7 c6 bd 50 72 be bb e6 8c 76 3d
       -0.07313261 -0.09703029 -0.005811967 0.060192965
000050 a4 a2 75 bd 1e 40 44 3d 66 05 02 be de e3 1d bd
       -0.05996956 0.04791271 -0.12697372 -0.03854739
000060 f2 03 c3 bd 19 f1 c8 bc e6 a8 fc bd 7c fc e2 bc
       -0.09522237 -0.024529027 -0.12336902 -0.027708285
000070 82 ed 64 bd 88 3d b2 bd b7 8c 84 3d d0 68 3a 3d
       -0.055890568 -0.087031424 0.06472152 0.045510113
000080 9e 5a 34 3d bb 33 a9 bd d0 43 88 3d 16 d5 02 bd
       0.04403173 -0.0826182 0.06653559 -0.031941496
000090 8a 4c 4d bd 0c c2 6a 3d 1e b9 82 bd fd 89 bb bd
       -0.05012182 0.057313964 -0.063829646 -0.091571786
0000a0 b8 7f 12 3d c1 a8 3e 3d 88 e4 df 3c e3 1a 8c 3c
       0.035766333 0.046547655 0.027330652 0.017102664
0000b0 37 05 c8 bc 5f 77 6b bd 19 d8 b4 3d 3b fa 95 bd
       -0.02441655 -0.057486888 0.0883028 -0.07323118
0000c0 3f 75 2b bc 1e b8 53 3d 53 e4 8a 3d b8 20 ba bc
       -0.010464965 0.05168926 0.06781831 -0.02272068
0000d0 fd a5 b2 3d cb ff 85 bd 16 ba 52 3d b3 61 15 3c
       0.08723066 -0.06542929 0.051446997 0.009117532
0000e0 d9 7c c2 bc cb 48 01 3d a6 04 a5 bd aa a6 05 bd
       -0.023741173 0.03156356 -0.08057527 -0.032629646
0000f0 45 e6 9e bd 56 b7 9f bc 1d ef 9f 3d 5e 8b a5 bd
       -0.07758764 -0.019496601 0.07809279 -0.08083223
000100 0e d7 de 3c c0 c2 b3 3a 20 8b 89 3d e7 5b 91 bd
       0.027202155 0.0013714656 0.06715989 -0.07097607
000110 fb f0 ab bd 00 64 cd 3b 66 15 9f bc 4b f3 99 bd
       -0.08395573 0.0062680244 -0.019419383 -0.075171076
000120 5f 7c 15 3d 4f d4 eb bc c0 11 e3 ba 8e f4 10 bb
       0.036495563 -0.02878776 -0.0017324015 -0.0022118422
000130 7a 4a 18 bd 1a 12 e9 3b cf 37 7c 3d 9d a8 87 bd
       -0.0371804 0.0071127536 0.06157666 -0.06623957
000140 37 9b 8d bd 61 da 95 3d a8 12 93 bc 1c 7f 77 bd
       -0.069143705 0.07317043 -0.017953232 -0.060423955
000150 43 57 39 bd 98 c0 aa bd 55 7c 00 bc 78 bc c2 bc
       -0.045249235 -0.083375156 -0.007842143 -0.02377151
000160 04 57 be 3c f6 dd a5 3d b8 f6 f5 3c 2b a4 80 bd
       0.023234852 0.08098976 0.030024871 -0.062813126
000170 5f d6 4d bd aa 27 3a bc 98 a8 44 3c d2 5c 71 3d
       -0.05025327 -0.011361996 0.0120030865 0.05892641
000180 f2 f6 5d 3d de 92 1c bd 14 28 3b bd 4b 60 35 3b
       0.054190584 -0.038226 -0.04569252 0.0027675803
000190 46 f7 78 3d 25 cf 6c 3d 96 ca a1 bd 69 91 a3 bd
       0.060782693 0.057814736 -0.07899968 -0.07986719
0001a0 f9 ee 9e bd 33 0f 84 bd 1d 1b 95 bd 73 d6 b4 bd
       -0.07760424 -0.064482115 -0.07280562 -0.088299654
0001b0 37 87 5d 3d 08 40 06 bd e4 fb 61 3d ef cd 9a 3d
       0.05408403 -0.03277591 0.055171862 0.0755881
0001c0 40 b3 ff bb ef 01 b4 bd e1 3e e8 bb c2 53 4e bd
       -0.0078033507 -0.08789431 -0.007087574 -0.050372846
0001d0 24 af 11 bd b4 ba eb 3c c1 ce 88 bd d4 33 b5 bc
       -0.035567418 0.02877555 -0.0668006 -0.02211944
0001e0 93 cb 2c 3c d0 9f 97 3d 1f d8 17 3d a0 47 d8 3b
       0.010546583 0.07403529 0.037071344 0.0066003352
0001f0 6e 01 1e 3d bc 53 38 3d 29 0e 24 3c 5b cf 40 bd
       0.038575582 0.04500173 0.010013142 -0.04707275
000200 c4 cb d5 bc 85 6c b2 bd 64 d8 13 be 86 8f 1f be
       -0.02609814 -0.08712105 -0.14438015 -0.15582094
000210 b8 d7 da bd 0c b9 72 be a4 d6 44 be c7 b0 af 3c
       -0.10685676 -0.23703402 -0.19222504 0.021446599
000220 4b dd f7 3d d0 89 95 bd 95 f1 85 bd 31 43 16 3d
       0.12102755 -0.07301676 -0.06540219 0.036685172
000230 30 c4 51 3d b5 3a 39 be e4 e8 eb 3c e2 00 42 be
       0.05121249 -0.18088801 0.028797574 -0.1894565
000240 b8 4e ee bc 18 66 9e be 49 e9 b5 bb d2 65 82 bd
       -0.02909027 -0.30937266 -0.0055514914 -0.06367077
000250 f8 a0 dd 3c 47 79 ae bc e6 c2 93 bd eb d8 7c bd
       0.027054295 -0.021298064 -0.07214908 -0.061730307
000260 45 2a 75 bd 04 e2 ba bd 87 42 59 3e f2 2d 4c be
       -0.059854764 -0.0912514 0.21216784 -0.19939402
000270 69 b6 26 bd 22 a2 02 3e a3 c4 97 3d 2f 45 e7 3d
       -0.040701304 0.12757161 0.07410552 0.112924926
000280 b0 70 c6 bb 25 38 aa bd dc 67 51 bd 67 21 31 3e
       -0.006055914 -0.0831149 -0.05112444 0.17297898
000290 a1 f1 48 bd 99 40 05 bd 2e b7 63 3d 7f 2a 4e be
       -0.04905856 -0.03253231 0.055594616 -0.20133398
0002a0 f0 0c 49 bc 6f 4e 67 bc 24 58 fe bc db 82 34 be
       -0.012271151 -0.014117821 -0.031047888 -0.17628042
0002b0 db 84 be bc 2c 1e 34 be 97 ea ab 3b ea c1 fb 3c
       -0.02325671 -0.17589635 0.005246471 0.030732114
0002c0 f2 15 87 be c8 5a 91 3c 50 93 a9 3b 7f 60 55 bd
       -0.2638393 0.017743483 0.0051750317 -0.05209398
0002d0 9f f2 99 3d 0b 38 dd bd b7 9c 97 bd bc 2c 27 3c
       0.075169794 -0.10801705 -0.07402938 0.010203537
0002e0 d4 03 af be 92 53 24 3e bc 96 a9 bd 14 68 02 3d
       -0.34182608 0.16047505 -0.082807034 0.031837538
0002f0 8a 6b 04 bd 27 5d 21 bd c0 5e 1c bd fa 9f 29 be
       -0.03232912 -0.039395478 -0.0381763 -0.16564932
000300 c5 60 15 bc 16 e4 a5 bd 70 3d ea 3c ab f8 29 be
       -0.00911731 -0.081001446 0.028593749 -0.16598766
000310 f8 98 55 bc b1 83 82 3d ec 76 a9 bd 82 53 57 bd
       -0.013036959 0.063727744 -0.08274636 -0.052569874
000320 85 40 27 bd 1d 8f a1 be 98 6b 41 bc ec 59 0c bd
       -0.040833015 -0.315545 -0.0118054375 -0.034265444
000330 9b b1 1c 3d 57 f1 63 3c 4b 94 d6 3d 1c e5 43 be
       0.038255315 0.01391252 0.104775034 -0.19130367
000340 39 99 e5 3c 37 e7 b0 3d 09 5b 2b bd e8 56 2b bd
       0.028027164 0.08637851 -0.041834865 -0.041830927
000350 9e 49 ca bb 7a a2 a0 be 45 ab 34 be 10 2d 96 3b
       -0.0061733266 -0.3137396 -0.17643459 0.0045830086
000360 a7 6c 8b bc e2 1b a4 bd b0 21 01 be b3 e6 85 be
       -0.017019583 -0.08013131 -0.12610507 -0.26152572
000370 c0 b6 89 3b 9d ab 66 bd 41 5c 87 bd 2d d8 64 bd
       0.0042026937 -0.056316007 -0.06609393 -0.055870224
000380 30 1a 24 3c d0 07 d5 3b e4 66 af bc c7 bf 33 bd
       0.010016009 0.0065011755 -0.021411367 -0.043884065
000390 72 6a 1c 3d 84 36 b3 3d e2 14 cf bd 53 7a 69 bc
       0.03818745 0.087506324 -0.10111405 -0.014250356
0003a0 69 96 01 be 5a 9a 61 3d 5b ec b5 bd 69 e2 d5 bd
       -0.12655033 0.05507884 -0.08882972 -0.10443575
0003b0 21 8c a6 bd 81 11 ac 3d 3f e1 04 3d 52 85 89 3d
       -0.08132196 0.08401776 0.032441374 0.06714882
0003c0 a0 4a ae bb 91 5d 41 be 37 6d 9e 3d 64 a1 70 be
       -0.0053189546 -0.18883349 0.07735675 -0.23499066
0003d0 b9 7b f7 bd c9 3c ea 3d bd 99 82 3d 57 b6 8a bd
       -0.12084145 0.11437375 0.063769795 -0.0677306
0003e0 b6 4d 32 bd cb b2 af 3c 32 a8 a1 bd 16 f3 25 3d
       -0.043531142 0.02144756 -0.07893409 0.040515028
0003f0 88 68 d8 bc 23 52 1b be 93 8a 9b 3c f6 8c 5d 3d
       -0.026417032 -0.15168051 0.018986976 0.05408951

fc2.bias f4 [128]
000000 28 a7 bf bd 68 27 c6 bd c9 92 a8 bd b7 b9 1a bd
       -0.093580544 -0.09675485 -0.08231122 -0.037774768
000010 d2 a9 f9 bd ec c0 85 bd b3 ca 94 bd 37 93 81 bd
       -0.12190594 -0.065309376 -0.07265224 -0.06326907
000020 cb 1f 47 bd fd 00 8e bd 92 d9 5b bd fd 52 9b bd
       -0.048614305 -0.06933782 -0.053674288 -0.07584188
000030 0f a9 91 bb a4 cd 99 bd cc b7 86 bd c8 c1 1b 3e
       -0.004445202 -0.07509926 -0.06578025 0.1521064
000040 35 92 f3 bc 29 4b 06 bd 94 51 5d bd 5c a4 14 bd
       -0.029732803 -0.032786522 -0.054032877 -0.036289558
000050 3a 7b 74 bc c9 8d 02 be 88 b1 16 bd 3d c7 22 be
       -0.014921958 -0.12749399 -0.0367904 -0.15896316
000060 22 be b5 bd c7 97 46 bd 0d 59 93 bd d5 18 6e bd
       -0.088741556 -0.04848459 -0.071947195 -0.05812915
000070 ad 06 af bc a4 d9 fe bd c9 8d 11 bd 9b 32 df bd
       -0.021365488 -0.124438554 -0.035535607 -0.10898324
000080 7a 04 c7 bd a2 68 56 bd 4d 3b a3 bd 6f 71 aa bd
       -0.09717651 -0.05234588 -0.07970295 -0.08322417
000090 ba a2 21 bd a1 b1 81 bd 9e 67 ae bd 66 98 7b bd
       -0.03946183 -0.06332708 -0.08515857 -0.061424635
0000a0 fe f7 38 bd 2b e2 fa 3d ab 36 1a bd 88 1b 80 3c
       -0.04515838 0.12250169 -0.03764979 0.015638128
0000b0 c6 1f a0 bd 5b 01 52 bd a8 69 b5 bd b1 fb e2 3d
       -0.0781856 -0.051270824 -0.08858043 0.110831626
0000c0 d3 fd 5f bb 1a 38 b5 bd a0 32 71 3c 41 8e b7 3c
       -0.003417839 -0.08848591 0.014721543 0.0224067
0000d0 e7 aa 56 bd 42 5d 0e be ac 16 3c bd 2c 6e f6 bd
       -0.05240908 -0.13902763 -0.04592006 -0.12032732
0000e0 43 f8 a8 bd a5 3e 4f bc 55 c0 81 bd 18 0f 7c 3d
       -0.08250477 -0.012649213 -0.063355125 0.061537832
0000f0 85 1e 1b bd ba b2 87 bd 04 32 6e bd 88 74 b0 bd
       -0.037870903 -0.06625886 -0.058153167 -0.086159766
000100 5c fd b0 bc 44 1b ef 3d 27 e1 29 bd e6 29 fb 3c
       -0.021605186 0.116751224 -0.041474488 0.030659627
000110 f4 18 52 bd 49 25 a7 bc 06 71 6e bc 77 5e 8a bc
       -0.05129333 -0.020403521 -0.014553314 -0.016890747
000120 3e e2 80 bd 26 9c 9c bd b8 bd d9 3d 4c 19 60 bd
       -0.06293152 -0.076469705 0.10631889 -0.054711625
000130 79 77 d7 bd 1f aa cd bd bc f4 00 3e ed 8b 66 bb
       -0.105208345 -0.10042214 0.12593359 -0.0035178617
000140 fa 54 8b bd 26 80 b5 bd 8e 02 49 be 64 cf 37 bd
       -0.06803317 -0.08862333 -0.19629881 -0.044875517
000150 5e 39 29 3e 83 2e 30 bc 7d e0 17 bd 32 0e 00 be
       0.1652579 -0.010753277 -0.037079323 -0.12505415
000160 71 8e 32 bd 47 53 e7 3c b0 82 9f bd 5b ef 16 bd
       -0.043592874 0.028237952 -0.077885985 -0.03684936
000170 b1 fd 84 bd 7e a9 0a be 7c 1f cc 3b 91 e3 af bd
       -0.064937 -0.13541219 0.006229339 -0.08588327
000180 0a 21 47 be f2 d8 b8 bd b5 9e 8f bd a0 6c 38 bd
       -0.19446197 -0.09025754 -0.07012693 -0.045025468
000190 ff 4b 8f bd 32 0e 50 bd 65 3a 24 3e 10 71 cf bc
       -0.06996917 -0.050794788 0.16037901 -0.025322467
0001a0 96 85 9f bc 8d fb b5 bd b4 97 8f bc 40 e2 0a 3e
       -0.019472878 -0.0888587 -0.017528392 0.1356287
0001b0 b0 bb a8 bd 11 a6 37 bc 0d a1 1f bd 02 43 3c 3e
       -0.082389235 -0.011209027 -0.03897195 0.18384936
0001c0 ac 01 72 bd ec 5b 9c bd b4 76 e6 bc 10 89 43 3e
       -0.059083626 -0.0763472 -0.028132774 0.19095254
0001d0 b2 99 bb bd 6a 70 12 be a8 e7 01 be 62 5f bf bd
       -0.091601744 -0.14300695 -0.12686026 -0.09344365
0001e0 a5 b4 d0 3d b7 d5 f0 bd 06 38 0b bc 7e 70 ce bc
       0.10190705 -0.11759513 -0.008497244 -0.025200125
0001f0 fd fa b2 bd 3a 8d 11 bd 73 54 df 3d d0 45 96 3d
       -0.087392785 -0.035535075 0.10904779 0.073375344

fc3.weight f4 [6, 128]
000000 f2 04 b8 3d 16 34 60 bc ff 4f de 3c 50 7a 4d bc
       0.08985318 -0.013684293 0.027137754 -0.012541369
000010 e3 30 8e 3d ab 15 09 b9 ff 9a 42 3d b9 64 44 3d
       0.06942918 -0.0001307341 0.047511097 0.04794762
000020 bb 95 dc bc 40 b8 08 bd f8 97 89 bc 5e 9a 1e bd
       -0.026926866 -0.03337884 -0.016796097 -0.038721435
000030 dc b7 8a 3d c2 aa 73 3c e2 7c ad bd 1e 1a 3b 3e
       0.0677335 0.014872255 -0.08471085 0.18271682
000040 54 05 a5 3c 7e 79 e1 3c 7c e4 dc 38 a5 bb 8c 3d
       0.020144142 0.027523752 0.00010532976 0.06871728
000050 1c 1d 5c 3d 89 73 ae 3d 6b 3d 62 3d f2 f7 2b bd
       0.0537387 0.0851813 0.055234354 -0.041984506
000060 bf 47 7d 3d 23 6d ed 3c b1 a5 c7 3c 6e 31 60 3d
       0.061836 0.028982705 0.024371 0.05473464
000070 98 14 82 3d 64 f4 35 3d 68 6e d0 bb 9c 44 39 ba
       0.06351584 0.044422522 -0.0063608177 -0.00070674135
000080 61 9c c1 3c 75 d6 7c 3c a5 e8 0b bd e6 48 ea bc
       0.023634138 0.01543199 -0.034157414 -0.028599214
000090 d4 71 24 bd 41 9a 38 bd 3f 0a 62 bd 70 ed 35 3d
       -0.040147617 -0.045068983 -0.055185553 0.04441589
0000a0 51 2c 52 3d 95 cd ae 3d b3 72 11 bc 1f 06 f4 3b
       0.051311795 0.085353054 -0.008877444 0.0074470188
0000b0 83 ae fd 3c cf 89 2d 3d ae 18 aa bd 61 07 86 be
       0.030967003 0.042367753 -0.083054885 -0.26177505
0000c0 19 fc ed 3c 96 5b 1c 3d 1c c3 16 3e d0 f3 6c bd
       0.029050874 0.03817328 0.14722866 -0.057849705
0000d0 d4 75 c9 3c 17 ec e5 bb 30 e7 0e 3d 86 01 c4 3c
       0.024592318 -0.0070166695 0.034888446 0.023926508
0000e0 64 66 8e 3d 09 c1 4b 3d 82 00 6f bd 56 8d 9b bd
       0.06953123 0.04974464 -0.058350094 -0.07595317
0000f0 1a 80 31 3e 9f 06 b2 3c 27 8a 39 3d 88 9f f3 3c
       0.17334023 0.021731673 0.045297768 0.029739156
000100 32 60 f1 b9 53 eb 88 3e e5 ee b0 3c ca a7 90 bd
       -0.00046038773 0.26742038 0.021598289 -0.07063253
000110 6e 5e 81 bb 32 a4 51 bd 2e 4f 85 3c 11 c8 3b bd
       -0.0039480245 -0.05118198 0.016273107 -0.045845095
000120 e6 8d c9 3b 53 a0 5b 3d 38 be 78 3e 51 00 0b 3d
       0.006150949 0.053619694 0.24291313 0.03393585
000130 8d 81 9c 3d 4d 73 a8 3c c4 e9 b5 be 20 b6 eb 3c
       0.07641897 0.020562792 -0.35529912 0.028773367
000140 f8 50 63 3c d7 9a 92 3c f8 7d 5e be d7 56 81 bc
       0.013874285 0.017896099 -0.21727741 -0.015788479
000150 9a 9e 85 3e fd c7 36 be e3 58 04 3c 65 62 0b 3e
       0.26097566 -0.17849727 0.008077833 0.13611753
000160 68 f9 2b bc b6 20 8c bd e4 6c 97 3c 40 5b 86 bd
       -0.010496475 -0.068421766 0.01848454 -0.06560373
000170 88 14 5e bc 1b 00 b4 3c 59 b9 2e 3b 9d 37 64 3b
       -0.0135547 0.021972707 0.0026660769 0.0034823187
000180 05 c1 81 3d 19 fa 9d bd a7 b4 af 3c 04 eb 04 3d
       0.06335644 -0.07713718 0.021448446 0.03245069
000190 49 af 55 bd 31 9d 18 3c b2 91 22 3d 1c ea 2f 3d
       -0.052169118 0.009314821 0.039689727 0.042947873
0001a0 0d 10 39 3d 1d f4 c4 bb 1e e4 43 3c 70 62 93 3e
       0.045181323 -0.006010546 0.011956243 0.2878604
0001b0 a7 df 53 3c a9 c0 0c 3e 08 63 50 bc e3 e1 97 3d
       0.012931741 0.13745369 -0.012718923 0.07416131
0001c0 2f 40 a2 3d 40 d6 ae bc d6 a0 68 3d 0a aa 9c 3e
       0.07922398 -0.021342397 0.05679401 0.3059848
0001d0 9c 47 9c 3d f4 d2 fd 3d e8 6a 9e 3c 52 3f 5c bc
       0.07630846 0.12393752 0.019338086 -0.013442831
0001e0 3c 78 4e 3e 66 bb 61 be 82 25 86 bc b8 b8 2d 3d
       0.20163053 -0.22044143 -0.016375307 0.04241249
0001f0 6a 41 84 bd ae 1c 3c 3d b6 13 d5 3e 7b 43 81 3e
       -0.06457789 0.04592579 0.416166 0.25246796
000200 6b 2c 76 3c 25 1b d9 3c 23 ee f6 3c 39 db cc bd
       0.0150252385 0.026502201 0.03014285 -0.10002751
000210 0c 35 f3 3c b0 01 12 bd d5 ce bf 3c c1 c7 c6 3d
       0.02968838 -0.03564614 0.023414055 0.09706069
000220 04 2f 75 bd 88 cb 6a bc c9 e6 9c 3d 00 d0 ba b8
       -0.05985929 -0.014330752 0.07661206 -8.907914e-05
000230 ab 91 a0 3c 1b db 61 bc 01 b9 9a bd 3f df 3d 3e
       0.01960071 -0.013785149 -0.07554818 0.18542193
000240 5c 8a 15 3d 6a 91 22 bd 96 00 43 bd 5d f3 06 3d
       0.036508903 -0.03968946 -0.04760798 0.032946933
000250 73 a0 b6 3c 2a ad 31 3d ec 02 81 39 63 69 99 bd
       0.022293305 0.043378033 0.00024606974 -0.07490804
000260 5c 05 6b bd 56 93 48 3d 3b 7a da bc 38 69 69 bc
       -0.057378158 0.048968635 -0.026669612 -0.0142462775
000270 f7 79 98 bd 30 42 f8 3c 13 ab 28 3d 5d 14 64 3d
       -0.07445138 0.030304998 0.041178774 0.055683482
000280 6f 18 92 bb b6 c7 2a 3d a4 82 36 bd dd ce 13 3d
       -0.004458479 0.041694365 -0.044558182 0.036085952
000290 b0 cb a6 3c 27 ae 90 3d c4 c7 04 3d 83 a1 b2 3d
       0.020360798 0.07064467 0.032417074 0.08722212
0002a0 09 b7 45 3d d7 db 15 3e 3b fe 48 bb 9c 8d e5 3d
       0.04827026 0.14634643 -0.0030669111 0.112086505
0002b0 82 3c 28 3c 82 77 28 3e a0 81 ac bc e0 e6 a4 bd
       0.010268332 0.16451839 -0.021057904 -0.080518484
0002c0 a5 91 22 bd 8f 11 5d bb 8d 32 01 3f eb a5 81 bd
       -0.03968968 -0.003373239 0.5046776 -0.063304745
0002d0 b8 0e 92 bd 2e 5d 97 bd 1e 07 18 3c fd 5b 8f bc
       -0.07131714 -0.073908195 0.009279041 -0.017499918
0002e0 91 ca be 3d df 23 a7 3c 32 51 d0 3c d0 4a 9a 3e
       0.0931598 0.020402847 0.025429342 0.30135202
0002f0 b8 d2 6e 3e d7 7a a6 bc e9 a2 1c 3d 62 00 66 bd
       0.2332257 -0.020322246 0.0382413 -0.05615271
000300 0c 2a 39 3d 30 b1 38 3e 89 8d ac bc ad 60 e8 bd
       0.045206115 0.18036342 -0.021063583 -0.113465644
000310 4f bc 05 3d 7b f1 23 3d a0 32 62 be 5d 62 a8 bc
       0.03265029 0.040025216 -0.22089624 -0.020554716
000320 b5 c0 da bb ca ba 66 3d a3 02 9c 3e b8 29 a1 bd
       -0.0066758045 0.05633048 0.30470762 -0.07869285
000330 b7 91 e5 3c 09 d4 44 3c 50 26 09 3f f0 3f 25 3c
       0.028023584 0.012013444 0.53574085 0.010086045
000340 f8 4f 27 3d b7 21 a9 3c 7f 9c 6e 3d 87 b5 a5 bd
       0.04084775 0.02064596 0.058254715 -0.08091264
000350 94 c4 9d 3e 93 a8 68 3e 12 39 cf bd a9 44 61 bd
       0.3081404 0.22720556 -0.10118307 -0.05499712
000360 d6 26 aa 3d b9 00 91 be 3c f4 b3 bd fa 0a 53 ba
       0.083081886 -0.28320864 -0.087868184 -0.0008050647
000370 1a 28 e1 3c 2e f3 6b bd 0e 02 cf 3c 39 0d af 3d
       0.027484942 -0.05760496 0.025269534 0.08547444
000380 7b a1 7d bd bc c7 98 3d 28 7e c3 bd 3e ab 52 3d
       -0.061921578 0.07459971 -0.09545547 0.05143284
000390 3c 0e b7 bd 8c eb 7f bd 33 cf 80 3e c5 7f c7 bc
       -0.08938262 -0.062480494 0.2515808 -0.024352917
0003a0 2f 5c 56 bd df 3d 01 bd 87 0a 0e 3b 9d 9f 1d 3e
       -0.052334007 -0.031553145 0.0021673755 0.15392919
0003b0 be 1a d5 3b bf 7f a4 3d f6 54 07 3d da 0c 20 3e
       0.006503432 0.08032178 0.03304001 0.15629902
0003c0 4e a9 ae bd d0 2c b0 3c fe 4b 16 3d d2 ef 39 3e
       -0.08528386 0.021505743 0.036693566 0.1815789
0003d0 c3 2a 00 3c 14 2d 3f 3e 09 31 7a 3d 9a 2a 65 bd
       0.007822695 0.1866954 0.06108192 -0.05594883
0003e0 93 b5 21 3e 7e f2 92 bd d6 48 89 3e b6 41 cc 3d
       0.15791921 -0.07175158 0.26813382 0.09973471
0003f0 1f d6 57 ba 9b 83 1f 3d 66 83 da 3e 53 07 13 3e
       -0.00082335057 0.038943868 0.42678374 0.14358263

fc3.bias f4 [6]
000000 52 50 c1 3e 98 10 c1 3e a1 45 c0 3e ba 6d c0 3e
       0.37756592 0.37707973 0.37553123 0.37583715
000010 d5 4f c0 3e b7 86 00 3f
       0.37560907 0.5020556
