ai/models/dqn_ep50.pth (torch, 77330 bytes, 6 tensors)

fc1.weight f4 [128, 10]
00000000: 9aa5 93be 9862 9cbe d3cf 4dbe b92d 27be
00000010: 549e 96be 3011 1e3d ee6a 4e3e fced ae3d
00000020: 110b 21be f0a2 c0bc 166e 053e 375f ac3c
00000030: 4a5e f93b b0b7 123e ed1e d03d 32ce 85be
00000040: cef7 a2be cff3 9bbe aa5d 813e 5f87 093e
00000050: b2b3 0bbe f2fb 79be 73dd 633e bb13 4c3e
00000060: 5b52 49bb 2ac6 3aba 3a31 77bf 68cb 923e
00000070: a899 9b3e fe17 6bbe a0ce 18bc d106 1abe
00000080: 1147 893e edb9 a13e 8028 363d 009b bb3a
00000090: 5067 b63d a863 393d 6019 17bd 4691 2abe
000000a0: 58c6 ec3d 23ec 7abe da70 97be 2271 b1bd
000000b0: 538d 33be 9af3 8bbd 3ceb f83d 14c5 82bd
000000c0: ba27 543e 98c9 023d 455a 9fbe 2436 8fbd
000000d0: aabc 86be 3b46 e2bd 4693 8abd a4f7 853e
000000e0: 42ae 6d3f 8d1d dc3e d3e6 e13e cd77 7f3e
000000f0: ffac 4fbb 5336 1abe b721 063e 0748 27be
00000100: 9b18 1e3e 1cc8 63be ff2f 00be 736a 1cbc
00000110: 9ec3 683e ec5c f7bd 326f 623d 4b2e 86bd
00000120: 0419 76be 36bb 9ebe 5792 6ebe c9d7 11be
00000130: 59d8 40be e9b6 0dbe 2963 d7bc bf31 9abe
00000140: 7e59 93bd 540b 83bd 2551 3b3e 7e05 d6bc
00000150: b96e 49be 043e 9ebe bc3d cebc b39e bf3c
00000160: 9e9e 60be d4b1 39be e473 fdbd 630c 22be
00000170: 681a bc3d f559 80be 80df 273d 3cf1 8fbe
00000180: e39a 30be f0e4 cabc be18 febd f045 363e
00000190: f4a9 fabd 804c 77be ae41 443d 6924 e53d
000001a0: f5fc 2bbe e04c febd b21a 823d ceb1 663d
000001b0: c1ea 923e be5a 27bd 2f4c bf3d 7d85 7a3e
000001c0: f200 81be 562e a9be dbcc 1bbc ca28 37be
000001d0: 798b f93e 4dd0 acbc 3265 ce3d ee6f 06be
000001e0: 1d01 213e 8857 b83b 61a1 2d3e 5a44 6bbe
000001f0: f060 dabc c0f6 6dbe 99b8 41be 74cf f83d
00000200: eb38 5d3d 49e7 d83d 8c3e 0f3e 9c00 6d3d
00000210: 9d24 a53e 95e6 e53d 8c2d bfbe aaaa 8dbe
00000220: 29bd 21be c461 f6bd b45e 50be fc45 3ebe
00000230: cb76 11be a2d0 99bd b991 7c3d 39f6 243e
00000240: 9cf9 833b 2cbf b3be 6a4d ea3d 0a87 8e3d
00000250: 1a4c 7bbd a0e2 ecbc b9d7 e53d fa8b 623c
00000260: 9e45 193e 07d6 cabd 48e5 753e 6e0f 0d3e
00000270: bc90 003f 51bc 073e b246 26bd 183f 0b3e
00000280: 55d8 563e e286 483b 3bcb ad3e a0f1 78be
00000290: 8434 f1be 87de 8bbd 8009 ea3e f25a 6e3d
000002a0: 612e 7abe 93ec 86be a474 89be f5f1 d83d
000002b0: aa20 b3be f368 e53d 051b bebe 58fb 0b3e
000002c0: ffca 963e 3c66 fbbd 0aa8 15be 20de 453d
000002d0: 05c5 853e 01e1 2abe 0041 663c 5f6e 893e
000002e0: d858 193d 4cd6 203e 33c5 8e3e 0034 133d
000002f0: a01b 5dbd b1f9 6bbe 9a71 f9bc 6dd2 65be
00000300: 12a1 3bbd b359 633e 3ebc 9d3c b280 34bc
00000310: 5939 dd3d 21cb 10be bbdc 2cbe 007d 9d3d
00000320: 2d76 7e3e 8e5b 94be a610 a13e 76c1 8fbe
00000330: 1650 ed3d 5db6 97be 0efa bebe c49f 443e
00000340: 039c 0dbf 7816 1dbd e586 a0bd db27 86bd
00000350: 8ee0 8cbe ad55 d03d d636 e8bd 4118 89be
00000360: e893 5a3d 8fbb 143e 105e 123f d06c 263e
00000370: f742 2cbe bc4d c13d 553d 10be 3bdc acbe
00000380: e40f 9bbd 13e8 55be 8c38 9fbe 4595 91be
00000390: 7daf 8cbf af46 0bbd 7f5a 693e f7b4 53bc
000003a0: 2827 3e3e cc3c 04be 7eea 04be 0771 29be
000003b0: 6142 88be 2b70 603e 41cf 70bf f32a 063c
000003c0: 2612 bf3d a636 1a3e 4f02 c2be 6186 a2be
000003d0: 063b 743d a7da 343c c9fb 99be 9e1c 533d
000003e0: eb82 053e 7f22 163e dec5 483d 700b f7bc
000003f0: 855e 9cbe 057c f1bd a064 913d 218b 6b3e
-0.2883728 -0.3054397 -0.2009881 -0.16326036 -0.2941767 0.03859061 0.20157978 0.08541486
-0.15726878 -0.023515195 0.13030276 0.021041496 0.007610117 0.14327884 0.101621486 -0.26133877
-0.31829685 -0.3045945 0.25266773 0.13430546 -0.13642767 -0.24412516 0.22252445 0.19929402
-0.0030719254 -0.00071248657 -0.9655949 0.28670812 0.30390668 -0.22958371 -0.009326607 -0.15041663
0.26812032 0.31587163 0.044472218 0.0014313161 0.08906424 0.045261055 -0.036889434 -0.1665698
0.115612686 -0.24504142 -0.29578286 -0.086641565 -0.1753438 -0.06833573 0.121542424 -0.06385246
0.2071828 0.031930536 -0.31123558 -0.069927484 -0.26315814 -0.11048552 -0.067663714 0.26165497
0.9284402 0.42991295 0.44121417 0.24948044 -0.0031688807 -0.15059786 0.13098799 -0.1633607
0.15439074 -0.22244304 -0.12518309 -0.009546864 0.22730872 -0.1207827 0.055281825 -0.065517984
-0.2403298 -0.31002206 -0.23298012 -0.14242472 -0.1883253 -0.13839306 -0.0262924 -0.30116078
-0.07194804 -0.06398645 0.18292673 -0.026125666 -0.19671144 -0.3090669 -0.025175922 0.023391103
-0.21935508 -0.18134242 -0.1237562 -0.15825038 0.09184724 -0.25068632 0.04098463 -0.28113735
-0.17246585 -0.024767369 -0.12407063 0.17800117 -0.12239447 -0.24150276 0.0479142 0.11188585
-0.16795714 -0.124170065 0.06352748 0.05632191 0.28694728 -0.040858023 0.09340703 0.24464984
-0.25196034 -0.33043164 -0.009509291 -0.17886654 0.48739222 -0.02109542 0.10077895 -0.13128635
0.15723081 0.005625669 0.16956092 -0.22975293 -0.026657552 -0.23238659 -0.18918075 0.121489435
0.05400936 0.10590989 0.13988703 0.05786191 0.32254496 0.11225621 -0.37339437 -0.2766927
-0.15794815 -0.12030366 -0.20348626 -0.18581384 -0.14205472 -0.07510497 0.06166241 0.16109551
0.0040275585 -0.3510679 0.11440547 0.069593504 -0.061351873 -0.028916657 0.112227865 0.013827318
0.14967963 -0.09904104 0.24013245 0.13775417 0.5022085 0.13255431 -0.040594764 0.13598287
0.20980962 0.0030597975 0.33944115 -0.24310923 -0.4711038 -0.06829553 0.45710373 0.0581922
-0.24431755 -0.26352367 -0.26846802 0.10593025 -0.34985858 0.11201658 -0.3712999 0.13670099
0.2945175 -0.12275359 -0.14614883 0.048307538 0.26126876 -0.16687395 0.014053583 0.2684202
0.037438244 0.15706748 0.27884826 0.035938263 -0.053981423 -0.23044468 -0.030449677 -0.22443552
-0.045807905 0.22202186 0.0192548 -0.0110170115 0.10801954 -0.14139988 -0.16881077 0.076898575
0.24849768 -0.289761 0.31458014 -0.28077286 0.11587541 -0.2963132 -0.37300152 0.19201571
-0.5531618 -0.038351506 -0.07838229 -0.065505706 -0.27515072 0.10172591 -0.11338584 -0.26776317
0.05336371 0.14524673 0.5717478 0.16252446 -0.1682242 0.09438655 -0.14085896 -0.33761773
-0.0757139 -0.2088931 -0.3109783 -0.28434196 -1.0991055 -0.034002956 0.22788428 -0.012921563
0.18569624 -0.12913817 -0.12980077 -0.16547023 -0.26613143 0.21917789 -0.94066244 0.008188951
0.093296334 0.15059909 -0.37892386 -0.31743148 0.0596266 0.011038459 -0.3007491 0.051540963
0.13038222 0.14661597 0.049016826 -0.030156821 -0.30540863 -0.11791233 0.07099271 0.23002292

fc1.bias f4 [128]
00000000: 289d 7fbd 3991 c5bd ac64 df3d eda3 8ebe
00000010: a018 64bc ef0b 9cbe 39b6 9e3d af65 983d
00000020: 1365 153e e3c9 0bbe 321c 3e3e 8f26 d0bd
00000030: c961 9fbe 65bc 8dbe a4f4 583d 015d 93be
00000040: dfed 7dbd 52be 2dbc af23 a1be a604 0a3e
00000050: 1a51 a53e 791d 113e b55a 113e 38d3 28be
00000060: 8ff8 c9bd 9311 25be a74a 3c3e 553c 10bc
00000070: bbac 2ebd 53b3 763d fb9e 47be f1b9 25be
00000080: d2f9 9cbd 2891 50be a208 21be cf90 10be
00000090: 977e eabc c17d 5fbd 005b de3c 8794 09be
000000a0: 3354 273e 56b5 a2be 7a71 c9bd 548e 5bbe
000000b0: eed6 b1be 689a 49be a7b4 bb3d b051 063e
000000c0: 80be 1c3e c3c4 003e a24c 8bbe 3e82 f13d
000000d0: bf89 8cbe f3e6 7f3d 803c 6fbb 7a2c 0abe
000000e0: 33cf 03be 4092 8ebe 3f42 ea3d 9b67 5cbd
000000f0: 0082 ed3d c2ac c8be 9ebd 5b3e e603 74be
00000100: c3f7 0cbe 40de ea3d 75e8 8dbd 7383 e6bd
00000110: c42b 07be 525a 75be 426a 183e a1a1 14bd
00000120: 4dbc 9dbe 3e61 54bd b4f5 60be db64 dfbd
00000130: 8c26 d1bd ed1f b0be e7f9 a1bd 6df0 123e
00000140: 4290 653e 8a53 f1bc f739 80be 5ef5 1ebd
00000150: 9270 18be 5571 5a3d 3fb9 0b3e c4cc 9ebe
00000160: 9645 843d 947d 53bd 992e 21be 6855 f8bd
00000170: 3802 91bd bce7 efbd 13db 4a3e b611 5abe
00000180: 1f87 b43d 0d89 61bd ff85 92be aba5 583d
00000190: 2282 ba3d 808d 5a3b 885e 81be 404b 4e3c
000001a0: a95f a3be 499c 43be ab93 e23d c51e f03c
000001b0: f849 e9bd 12ee 2c3d 3269 9cbe 3f28 4e3d
000001c0: a425 b0be 28a4 23be f0d1 ae3c a10c adbd
000001d0: 11e3 abbb 2c4b 25be 0359 433e be70 5c3d
000001e0: e577 40bc 1317 2b3d 3e95 aebd 101e a43d
000001f0: ad81 db3d 6297 8fbd 566b be3c 5ec0 013e
-0.062405735 -0.0964684 0.109078735 -0.2785944 -0.013921887 -0.30477855 0.077496 0.074412696
0.14589338 -0.13651232 0.18565443 -0.101636045 -0.31129292 -0.27682796 0.052967682 -0.28781894
-0.06199443 -0.010604458 -0.31472537 0.13478336 0.32288438 0.14171399 0.14194758 -0.16486824
-0.09861862 -0.16119985 0.18387853 -0.008803447 -0.042645197 0.06022961 -0.1949424 -0.16184212
-0.07664837 -0.20367873 -0.1572595 -0.1411774 -0.028624816 -0.054563288 0.027143002 -0.13435565
0.16340713 -0.31778973 -0.09836097 -0.21441013 -0.3473429 -0.19687808 0.09165316 0.13117099
0.15307045 0.12575059 -0.27206904 0.1179242 -0.27448842 0.06247611 -0.0036504567 -0.13493529
-0.12872009 -0.27845955 0.11438417 -0.053809743 0.11597061 -0.39194304 0.21459052 -0.23829612
-0.13766389 0.11468172 -0.06929103 -0.11255541 -0.13200289 -0.23960236 0.14884284 -0.036286954
-0.30807725 -0.05185055 -0.21968728 -0.109079085 -0.1021243 -0.34399357 -0.07908993 0.14349528
0.22418311 -0.02945878 -0.25044224 -0.03880822 -0.14886692 0.053330738 0.13644885 -0.310156
0.06458585 -0.051633433 -0.15740432 -0.12125665 -0.07080501 -0.11714122 0.19810133 -0.21295819
0.08814835 -0.055062342 -0.28617856 0.05289237 0.09106852 0.00333485 -0.25267434 0.012591183
-0.3190892 -0.19102587 0.11063322 0.029311547 -0.113910615 0.04221923 -0.30549008 0.05033135
-0.34403718 -0.1598059 0.02134034 -0.084496744 -0.0052455743 -0.16141957 0.19076924 0.053818457
-0.011747335 0.041770052 -0.085245594 0.080135465 0.10718093 -0.07011296 0.023244541 0.12671039

fc2.weight f4 [128, 128]
00000000: d083 8d3c bb2c f33c b453 df3b 76b2 493d
00000010: defc 783d 450b 7fbc 879b 843d e04b 5d3c
00000020: 1f61 55bd 3a4b adbd 5dd1 cfbd 9a91 a8bd
00000030: d5fe 3ebd 606d a1bd 8f72 4bbd 9289 7a3c
00000040: c1b3 00bd ccaa f9ba 56f0 e6bc 8ede b4bd
00000050: 4afc e83c bb5f 26bd d3c3 933d 9d06 03bd
00000060: 7e38 1bbd 0673 98bd 58e9 313c b605 eb3c
00000070: 0a37 623d 10d3 91bd d824 373c 9a3c 02bd
00000080: 7fc1 18bd 2711 7b3d 25e3 d4bd ab92 d0bd
00000090: eeb7 4bbd 8e1b 2f3d a448 96bd 709f e73c
000000a0: d83d b7bd fc5f 903c c102 8bbd 96ce 11bd
000000b0: 5f4f b03d 455f 85bd 5606 ea3c 51b6 9abd
000000c0: c3e6 a0bd fb13 9b3d 2004 393c 4ef7 583d
000000d0: 4cb5 bfbc f498 86bd fecc f4bc 5b60 30bc
000000e0: b244 4a3d c817 2dbc e208 3bbd 5853 1d3c
000000f0: 4231 8cbd 211b ffbc 41a9 8d3d a9d5 89bd
00000100: 355c 0b3c 5c77 af3c 2bb0 a3bd 26c4 61bd
00000110: 4e46 383d e50f 3bbd aa4f 7cbd 90f7 af3d
00000120: f21a 9ebd ee04 753d de40 583d e698 543d
00000130: 1af2 46bd 516c 43bd 9c14 0c3d adf4 a93c
00000140: cea6 203d 8499 7fbd 9857 8b3c 7884 a8bd
00000150: b6b4 4abd 418f ce3c 3bcd 483d 2b48 a83d
00000160: 5e74 cabd 68b5 97bd 6635 433d a0b5 d8bc
00000170: 68f3 61bc 391d 7f38 a3af c4bd 83be 873d
00000180: 3b05 6f3d ee88 a5bd 30cb 0f3c fd00 64bd
00000190: 5fc3 a33b 9ae0 ddbc 5f2e d23c 7dfb 1a3c
000001a0: b874 ff3c 630d 2bbd 76bb 7b3d 33b9 34bd
000001b0: e8f8 58bd 50af 843c a8ea ca3c aa53 2d3d
000001c0: 087d 82bd dd66 703d 1fc8 09bd a02f 843c
000001d0: 1c36 e5bc 5e5e a83d 4817 033d 8b8c 3dbd
000001e0: 60f2 6bbd 1e02 64bb 3a5f 0bbd 5dcd 8f3d
000001f0: 56fd da3b 2c07 89bc f1cd bcbd 06fb 743d
00000200: ce6d 483d f148 d7bc f6ae 6dbe 9a5b 85bd
00000210: 0228 553d 7c71 c5bd 21c0 a1bd fe84 84bc
00000220: b206 073d 4abe 15bd 8ee8 3abd 566d 23bd
00000230: e985 98ba 3d9e b4bc 4432 8cbd 1405 41bd
00000240: 7e2a a83c c79e d53a 323b 4f3d a1a4 8fbd
00000250: 2ab8 3a3e 5871 743d 6686 51bc 7d75 70bc
00000260: c021 ee3c 3b6a 9ebd b594 0cbe ff91 e7bc
00000270: a6d9 803d ad6c d5bd ea2a 81bd f8ec c5bd
00000280: b710 ac3c 0e36 283e b9d1 0ebd ae93 763d
00000290: 59e6 563c 5423 a33c 71fa b83a 9075 5d3d
000002a0: 1574 4dbd 4954 63bd 64c0 3d3e c0ef 50be
000002b0: 0979 a3bb e069 683c dcdb d0bd ed6d f4bd
000002c0: b78e 1b3d 75dd d0bb b2c0 1cbd ca1b b1bb
000002d0: 3aba 643d 5055 0e3e 2450 f13c fcc6 1bbd
000002e0: bc8c bc3d b4bc 853c f703 9bbc f9f4 8e3d
000002f0: 7a6f 8a3d 7e6c 19bc 7235 753b e064 adbb
00000300: a90e 843d 1087 803c a56d 2a3c 7a5a 843d
00000310: 8a20 403d a885 153e 820a db3d 97ea 9e3e
00000320: e0c6 793c e579 c63c e98c 343b dc15 3f3d
00000330: a7a4 3ebc 21ca 7ebe 3ce2 6f3c 7bbd 733c
00000340: d907 9c3c 9442 1f3d c031 5f3b 65f2 e4bc
00000350: 1053 8c3c c500 75bd c05a 0e3d 2cc3 bbbc
00000360: f4d7 913c a4d9 45bd a269 933d 3d35 cfbd
00000370: d260 2dbd 1616 00be dd66 943d 41eb 89bd
00000380: beba 22be 1be5 e0bc 5dda 963c 4406 a4bd
00000390: 6541 04bc 4064 953c 2106 eebd 475c 293d
000003a0: 8469 203d 4658 123d fe28 2f3e ce7c 5e3b
000003b0: d5e4 ccbd 8d00 313e 503a 20bd 0026 d83c
000003c0: 8539 413d f7ea 58bd 6cd0 6dbd 133b b4bd
000003d0: 0f10 d439 ecb8 a6bd 1920 f3bd 30d4 d93c
000003e0: ae7c 043d a2c7 723c 74ed adbc 725d 2fbe
000003f0: 5a1c 10bd d409 d0bc 2d62 95be b1cf 8c3d
0.017274767 0.029684415 0.006815398 0.04924246 0.060788028 -0.015566652 0.06474977 0.01350686
-0.052094575 -0.08461614 -0.10147355 -0.08230896 -0.046629746 -0.0788219 -0.0496698 0.015291588
-0.031421427 -0.0019048094 -0.028190773 -0.088315114 0.028440613 -0.04061864 0.07215085 -0.03198873
-0.037895672 -0.07443814 0.010858856 0.028689247 0.05522827 -0.07120335 0.011178218 -0.031796075
-0.037293907 0.061295655 -0.10394887 -0.10184225 -0.049735956 0.042750888 -0.07338074 0.028274268
-0.08947343 0.017623894 -0.06787635 -0.035597406 0.08608889 -0.06512312 0.028567474 -0.07554305
-0.07856514 0.0757217 0.011292487 0.052970223 -0.023401879 -0.06572142 -0.029882904 -0.01076516
0.04938192 -0.010564752 -0.04566277 0.00960239 -0.06845333 -0.031140866 0.06917048 -0.067302056
0.008505871 0.02141922 -0.07992586 -0.055118702 0.044988923 -0.045669455 -0.06159941 0.08592141
-0.07719983 0.059819154 0.052796237 0.051903628 -0.04857073 -0.04771072 0.034199342 0.020746553
0.039221577 -0.062402263 0.017009541 -0.082283914 -0.049488746 0.025214793 0.049023848 0.0821689
-0.098854765 -0.07407647 0.047658347 -0.026453793 -0.013790943 6.0823953e-05 -0.096038125 0.06628134
0.058354598 -0.08082758 0.008776471 -0.055665005 0.0049976553 -0.027084637 0.025656877 0.009459374
0.031183586 -0.041760813 0.061458074 -0.044121932 -0.05297175 0.016196877 0.024770096 0.042316116
-0.06371504 0.058691848 -0.033638116 0.01613599 -0.027979903 0.08221124 0.032004625 -0.04627661
-0.057604194 -0.00347913 -0.034026362 0.07021592 0.006683032 -0.016727053 -0.09218968 0.059809707
0.048932843 -0.026279898 -0.23211274 -0.06511612 0.052040108 -0.09640786 -0.07897974 -0.016176697
0.03296537 -0.036558427 -0.045631938 -0.039899193 -0.0011636588 -0.02204811 -0.06845525 -0.047123984
0.020528074 0.001629793 0.050593562 -0.07013822 0.18234316 0.059678406 -0.012788391 -0.014676449
0.029068828 -0.077351056 -0.13728602 -0.028267859 0.06291513 -0.10421119 -0.06307013 -0.09664339
0.021004064 0.1642687 -0.034867976 0.060199432 0.013116443 0.019914307 0.0014112723 0.054067194
-0.050159533 -0.055500302 0.18530422 -0.20403957 -0.0049887937 0.014185399 -0.10198185 -0.11935029
0.0379779 -0.006374056 -0.038269706 -0.005404924 0.055841662 0.13899732 0.02945716 -0.038031563
0.092065305 0.016325332 -0.018922789 0.069803186 0.06759544 -0.009364245 0.003741589 -0.0052915663
0.06448109 0.015689403 0.010402118 0.064625695 0.04690603 0.14601767 0.106953636 0.31038353
0.015245169 0.024228046 0.002754981 0.046651706 -0.011635936 -0.24881794 0.014641341 0.014876719
0.01904671 0.038881853 0.0034056753 -0.027947614 0.017129451 -0.059815187 0.034754515 -0.022920214
0.01780317 -0.04830326 0.07197882 -0.10117576 -0.042328663 -0.12508425 0.07246182 -0.06734324
-0.15891549 -0.027452996 0.01841467 -0.080090076 -0.008072232 0.01823628 -0.11622263 0.04134777
0.039163128 0.035728715 0.17105481 0.00339489 -0.10004584 0.17285366 -0.03911811 0.026385307
0.047173996 -0.052958455 -0.058060095 -0.0880033 0.00040447756 -0.0814074 -0.118713565 0.026590437
0.032345466 0.014818104 -0.02123139 -0.1712549 -0.03518329 -0.025395311 -0.29176465 0.068755515

fc2.bias f4 [128]
00000000: c967 22bd d9bd a63c df88 1bbd eeec 3bbc
00000010: 174e e4ba 1fc1 a3bc 783a a03b 916c 8f3c
00000020: 9b07 88bd 45ec 7cbd f659 5bbc e285 1b3c
00000030: 6ca5 8dbd 74b1 16bd 6cd1 5fbd ef18 99bd
00000040: 78f1 0d3b aa94 24bb 6928 93bd 5ba5 82bd
00000050: f82b 8dbd 173d 35bd 7215 1ebd 2cce a2bd
00000060: 2f1e 68bd 8da5 0dbd 2790 91bd a443 eeba
00000070: 64e7 64bd 3136 9cbb 4146 5f3b 7d29 8fbd
00000080: 543c efbc a07d 1cbd 49d3 d4bd bfac 32bd
00000090: 2cf2 2dbb 99f9 5dbd 9a93 fa3b 594d c5bd
000000a0: 7058 febc 4033 f2bd 69d5 5dbc b509 8d3b
000000b0: 190a bbbc 25f0 5cbd cf97 5bbd 2220 98bd
000000c0: e854 a2bc 3732 d03b c849 d8bb 591e 54bd
000000d0: 7b9f c5bd 9838 76bd 7c51 6ebd c549 b5bc
000000e0: 6860 9ebd 6e5e 1dbd 7333 873c 8c24 d73d
000000f0: aa24 0a3d 743c 7cbc 330c 56bd f991 86bc
00000100: 1bfb 09bc 63e0 4ebc 787f 91bc 5d47 82bd
00000110: e923 17bd 7763 9fbc 86fb f1bc cc01 e2bb
00000120: 4725 0dbd 138d c2bd 7f8c b3bc 4b0a 3cbd
00000130: 9f5b 04bd cf45 bbbb 5f56 dabb 2070 9dbb
00000140: 2d82 ba3c 4d92 7cbd f9c7 a4bd f04a a3bd
00000150: 1142 10bd 6bb1 233c 56b3 46bd c825 b9bc
00000160: 3b23 25bd 66bb 20bd 4506 1fbd 6dc1 da3b
00000170: e86a 5cbd bb45 88bd f354 b3ba 0d0c a5bd
00000180: 7d73 66bd 3adb 53bc 03ae d4bb 3a02 c63a
00000190: 5689 c53c 54dd f3bc 0bf2 f5bd 0be7 32bd
000001a0: de73 84bc bcc8 263d 1e7f 43bd d175 fd3b
000001b0: c48f bbbc 01d9 41bd 225d b1bd ee1f 35bc
000001c0: 365b 00bd d45c c7bc 9314 9a3b 07c7 57bc
000001d0: 6a1f c93d 12bc bcbd 74b6 c1ba 2044 833b
000001e0: 23a2 1a3d 3e71 a5bd c2a9 8cbc 1ac1 a1bd
000001f0: 61bd 65bd 9c59 11bd 9648 3dbb 6fb4 bdbc
-0.03964976 0.020354198 -0.037972327 -0.011470063 -0.0017418292 -0.019989548 0.0048897825 0.017507823
-0.06642076 -0.06174876 -0.013388148 0.009492369 -0.06916317 -0.036790326 -0.05464308 -0.07475459
0.002165882 -0.0025113025 -0.07185442 -0.06379195 -0.06893152 -0.044247713 -0.03859467 -0.079494804
-0.05666941 -0.03458171 -0.07107573 -0.0018178117 -0.055884734 -0.0047672023 0.0034068974 -0.06990335
-0.029203571 -0.038205743 -0.10391862 -0.043621775 -0.002654205 -0.054193113 0.00764699 -0.096338935
-0.03104803 -0.118261814 -0.0135396505 0.0043041357 -0.022831963 -0.053939957 -0.053611573 -0.07428004
-0.019815877 0.0063536423 -0.0066005923 -0.051786754 -0.09649559 -0.060112566 -0.05818318 -0.022129903
-0.07733232 -0.038420133 0.016504025 0.10505018 0.03372637 -0.0153952725 -0.052257728 -0.016427027
-0.008421685 -0.01262674 -0.017760977 -0.06361268 -0.03689948 -0.019456608 -0.029538881 -0.006897187
-0.03445938 -0.09499564 -0.02191758 -0.045908254 -0.03231394 -0.005715109 -0.0066631283 -0.004804626
0.02276715 -0.06166296 -0.08045954 -0.079732776 -0.035219256 0.00999103 -0.04851087 -0.022601023
-0.0403168 -0.039241217 -0.03882434 0.00667589 -0.05381289 -0.06653925 -0.0013681933 -0.08058939
-0.056262482 -0.012930686 -0.0064904704 0.0015106865 0.024113338 -0.029768623 -0.12009057 -0.04367737
-0.016168531 0.04071878 -0.04772865 0.007734992 -0.022895701 -0.04732609 -0.08660342 -0.011054976
-0.031336986 -0.024336256 0.0047021597 -0.01317001 0.09820445 -0.09215559 -0.0014779107 0.004005924
0.037752282 -0.0807824 -0.01717079 -0.07898159 -0.05608881 -0.03548585 -0.0028882376 -0.023157327

fc3.weight f4 [6, 128]
00000000: c08c 5b3d eace a23d 6767 8d3b 969b 743d
00000010: c7f2 03bc df2c 2cbd 9af4 2dbd 88ee e63d
00000020: 6f99 223c ef37 0dbd 1ddd 003d 4262 a93d
00000030: aeea 9d3c 9cce 853d 2db6 9c3d e422 3b3d
00000040: b90a 9a3d ffe1 f63d 8b1d 1e3d e19a 5c3c
00000050: d025 c93b 8864 113b a0fa 033d 8175 8d3d
00000060: e65e c73a daa4 c6bc 7055 913c e8ce bc3a
00000070: d8fb 793d 3efb 9a3d 1661 12bc d373 183d
00000080: 50d3 403c c5b3 e93c 5334 63bc e0f3 0ebc
00000090: b3ca 913d f212 4a3c d38e 0bbd 46f4 15bc
000000a0: c954 4e3d e74f ae3d 1f82 ea3d a5c4 3e3e
000000b0: 9e77 213d e0c9 b43b 86af c13c d2c2 9bbd
000000c0: d0b2 413c 08b3 7fbc e2f4 32bd bc00 833d
000000d0: ff90 24bd 6427 a13b 4d95 b63b b9bf ee3c
000000e0: 126b b5bc b019 5d3c ffed 41bc b796 2b3d
000000f0: a4fc 423d 5634 bf3b d952 42bd 6138 a33d
00000100: 90d4 853c 8d0c a73c f5d3 0dbd f7fb cebc
00000110: b796 e9bc a42d 973d 0a68 dabc bdb7 91bc
00000120: 0615 e03c 5c60 693d 1de6 c33c 89c2 08bd
00000130: 352b 383d 82e1 a7bb 2e48 333d 7cf9 c3bb
00000140: d8f5 debc ae9b b23d 8935 813d 0006 1abb
00000150: 8934 8d3d 95c7 bd3c 0289 73bd ff0c bc3c
00000160: 6425 10bd 60f0 5abd acda 063d 30e5 63bd
00000170: f416 5e3c 7a84 3038 4887 89bc 0833 f73c
00000180: f040 bb3c 464e 4ebd 1ab6 293c 9e5d 97bd
00000190: 34bf debc f69a 6d3c c0ec 253d c619 97bd
000001a0: c585 4dbd 0c2c bebd ac8f 993c 900e 06bd
000001b0: 4415 823d 721e 2dbc 7dae a13d 2906 2abc
000001c0: 2914 8ebd ac06 05bd 479e 3d3d 7ff2 9d3c
000001d0: 6596 f1bd 38b2 71bd 70a5 2cbc 945c 99bb
000001e0: 3121 d53d 0437 8f3c e91c 6cbd c4ce d2bc
000001f0: 268e b5bc 1e02 5dbc 1a0c 083d f791 18bd
00000200: 620d e8bc 8fc2 883d 01fd 1abd 85d3 793d
00000210: 462d f3ba 9f41 cbbc 6553 503b 7069 4f3e
00000220: 4b23 fabc 9205 98bd bf6b 863c 80dc c93d
00000230: b8df 313c 7019 a93c e52a 893d e441 673d
00000240: 717d 293d bf5b 0f3d 30b8 003d c7bb 4f3d
00000250: 80cb 053b 10d4 c23b 7194 9dbd 8022 69bc
00000260: d69d 4fbd e532 013d 30c6 4f3d 544a 383d
00000270: 8dff 5bbd 1ba4 b83c 1914 7c3d 9981 573c
00000280: bc77 a33d 55ec 253c fab8 babc 5df1 31bd
00000290: be88 5c3d 95f3 493d fcad 893c 0c97 b13c
000002a0: 51b9 49bd 86e7 323d f8a0 b23d aaa3 023e
000002b0: dc62 e0b8 f9bb a83d ede2 703c 5b7a ffbc
000002c0: 034e b7b9 d163 ba3d b80c 2c3d b1d7 31bd
000002d0: e15b 0d3c c568 b53c 691f 583c d040 3a3d
000002e0: 821d 4a3d ae03 b9bc 7e2c bd3c 4473 cabc
000002f0: 6fd8 2c3c c0c1 94bb 63a2 583d 9f5c e4bb
00000300: bd2b 3d3d 62dd 28bc 5873 64bb f2dd 76bd
00000310: c479 193d a2c0 ca3d 5e3b 5f3d 0d16 c33a
00000320: fd8c 0a3d 15c4 c4bc 0759 593a 7030 4ebd
00000330: 4df2 96bc c94d a2bb a04d 9f3c b602 abba
00000340: e0bc c73d 830a 923d 68f3 0fbc 2602 443d
00000350: 35f6 90bd 2201 1bbc 3d2b 6bbd 845f 253d
00000360: da61 2dbd 93f0 3a3b 9b8a 883d ef80 693d
00000370: 9999 203d f99c df3a b6ec 1fbd d354 e33b
00000380: e15c d13c 3d6f 973d 6d68 a8bb 2852 2cbb
00000390: 333c 553b 92e0 dd3c 67bf 3a3c 7a75 03bd
000003a0: 8979 8fbd 8f79 c4bd 5069 f1bc f689 ca3c
000003b0: 7f79 9a3a 127c b93b fcdd e53c 88c3 1e3c
000003c0: fdf4 6dbd 516b 923d bae8 103d cffd 293c
000003d0: 9e09 b3bd 7b3f ec3b 578c cc3c 07ab cabc
000003e0: 952b 033e b38b 36bd ba6b 113b 48df 84bc
000003f0: 82d1 1dbd 795a 8c3d 7bec 563d 3012 a1bc
0.053601027 0.07949622 0.004315305 0.05971869 -0.008053488 -0.04203498 -0.0424696 0.11275965
0.009924277 -0.03447717 0.03146087 0.08270694 0.019276943 0.06533548 0.07651935 0.04568757
0.075215764 0.12054824 0.038602393 0.01346466 0.006138541 0.0022185165 0.032221437 0.06907178
0.0015210777 -0.02424853 0.017740935 0.0014404925 0.061031193 0.07567452 -0.00893428 0.037219834
0.011769131 0.028528104 -0.013867456 -0.0087251365 0.0711874 0.0123336185 -0.034071755 -0.009152478
0.050373826 0.08511334 0.114506 0.18629701 0.039420716 0.0055172294 0.023643266 -0.076055184
0.011822417 -0.015606649 -0.04369057 0.063966244 -0.04017734 0.004918026 0.0055719973 0.029144155
-0.022145782 0.013494894 -0.011836528 0.04189178 0.047604218 0.0058350964 -0.04744229 0.07969738
0.01633671 0.020391727 -0.034625966 -0.02526663 -0.02851425 0.07381752 -0.026660938 -0.017787809
0.027353775 0.05697666 0.023913438 -0.03338865 0.04496308 -0.005123318 0.043770008 -0.0059806686
-0.027216837 0.087211 0.06309039 -0.0023502111 0.06894786 0.023166457 -0.059456833 0.022955416
-0.03519191 -0.053451896 0.032923386 -0.055638492 0.013555277 4.208505e-05 -0.01678814 0.0301757
0.022858113 -0.050367616 0.010358358 -0.07390903 -0.027190782 0.014502278 0.040508986 -0.07377963
-0.0501764 -0.09285745 0.018745266 -0.03272873 0.06351712 -0.010566341 0.07894609 -0.010377445
-0.06937439 -0.032477066 0.046293523 0.01928067 -0.117962636 -0.059007853 -0.01053749 -0.0046802256
0.104067214 0.017482288 -0.05764476 -0.02573336 -0.022162508 -0.013489274 0.033214666 -0.037248578
-0.028326694 0.06677734 -0.03783894 0.060992736 -0.0018552921 -0.024811564 0.0031787988 0.20255065
-0.030534407 -0.074229375 0.0164088 0.0985651 0.010856561 0.020642012 0.066976346 0.056459323
0.041379396 0.034999605 0.031425655 0.050716188 0.0020415485 0.00594569 -0.076943286 -0.014229417
-0.050687633 0.031542677 0.050726116 0.04499276 -0.05371051 0.02253919 0.061542604 0.013153457
0.07981822 0.010127147 -0.022793282 -0.043443073 0.053841345 0.049304564 0.016806595 0.02167847
-0.049248997 0.04367783 0.087221086 0.12757745 -0.00010699566 0.08238978 0.014702541 -0.031186273
-0.00034962603 0.0910107 0.042004317 -0.04341859 0.008627863 0.022144685 0.0131910825 0.045471966
0.049344547 -0.022584762 0.023092505 -0.024713166 0.010549649 -0.0045396984 0.05288924 -0.006969049
0.04618429 -0.010306688 -0.003485879 -0.060270257 0.03746964 0.09900023 0.054499976 0.0014883891
0.033825863 -0.02401928 0.0008291159 -0.050339162 -0.018426085 -0.0049531204 0.019446194 -0.0013047073
0.09752822 0.07130911 -0.00878606 0.04785361 -0.0707821 -0.009460719 -0.057414282 0.040374294
-0.042329647 0.002852474 0.06667062 0.057007726 0.039208982 0.0017060331 -0.039044105 0.006937602
0.025556983 0.07394264 -0.0051394016 -0.0026294086 0.0032537102 0.027084623 0.011398173 -0.032094456
-0.07005603 -0.09593498 -0.029469162 0.024723988 0.0011785476 0.0056605423 0.028059952 0.009690173
-0.058094967 0.07149375 0.035378195 0.010375454 -0.08742069 0.007209716 0.024969263 -0.024739755
0.12809594 -0.04456682 0.0022189454 -0.01621975 -0.03852988 0.06853194 0.05247162 -0.019661993

fc3.bias f4 [6]
00000000: f841 b7bd f649 c0bd 928b b7bd 37b5 b6bd
00000010: d105 b5bd 4b93 b5bd
-0.089481294 -0.09389107 -0.08962168 -0.08921283 -0.08839 -0.088659845
